models/digit_classifier_model.pth (torch, 440414 bytes, 6 tensors)

0.weight f4 [128, 784]
000000 7c c2 96 3c 77 c8 17 bd 3f 3a 29 3c 08 a9 1e bd
       0.018403284 -0.037056413 0.010328828 -0.03873542
000010 e6 1c 90 bb 94 c6 e1 bc 75 3d de 3c e1 93 59 3b
       -0.004397976 -0.02756051 0.027128914 0.0033199715
000020 28 34 ac bc 8d ef 60 bc ac 2b 02 bc 9b 43 0c bd
       -0.021020964 -0.013728988 -0.0079449825 -0.03424416
000030 4b d6 cf bc 35 c4 d7 bc 95 67 e4 3b f3 0c e3 3c
       -0.025370738 -0.026338676 0.0069703558 0.027716136
000040 79 5d bc 3b 8a 5a 15 bd 48 d6 8a bc 0f 19 35 bb
       0.0057484475 -0.036463298 -0.01694788 -0.0027633344
000050 82 7c b3 3c bd b9 7b 3c 8c 5c 28 3c e7 b0 0c 3c
       0.021909956 0.015364108 0.010275971 0.008587099
000060 ff b9 6c 3c bd 39 04 bd 7f 48 17 3c 91 5d de bc
       0.014448642 -0.032281626 0.009233593 -0.027144225
000070 13 82 97 bb cb 62 4d 3c cc 75 01 bd 2b be 13 bd
       -0.0046236604 0.012535761 -0.03160648 -0.03607003
000080 96 04 1b bd 6c 69 ea bc 51 36 83 3c 3e 0f 07 bd
       -0.03784617 -0.028614722 0.016017111 -0.03297352
000090 92 aa da bc 63 80 0d bd c2 82 9a bc f1 62 97 bb
       -0.026692662 -0.034546267 -0.018861178 -0.004619949
0000a0 75 c8 9d bc 1a a1 ea 3b 22 4f 8b bc 42 1a c5 3c
       -0.019260624 0.007160318 -0.017005507 0.024060372
0000b0 18 9a e5 3c 47 2a 9b bc ea 54 f0 3a 04 be 13 3c
       0.02802758 -0.018941058 0.0018335853 0.009017471
0000c0 68 d5 03 bd 9a 31 0e bd 6a 6b 12 bd 20 55 9e bc
       -0.032185942 -0.034715272 -0.03574697 -0.0193277
0000d0 5c 52 bf bc ed 6d 19 ba 09 fe d3 3c 4c 2d 90 ba
       -0.023354702 -0.0005852867 0.02587797 -0.0010999828
0000e0 9c 96 ea 3c 41 ae 93 bc 51 7b a3 3c 0e e2 9b bc
       0.02863627 -0.018027427 0.019956263 -0.01902869
0000f0 c6 e2 41 3c c2 37 de 3b aa 71 0a 3c 71 ca 1a bd
       0.011833852 0.006781549 0.008449951 -0.03779072
000100 51 6a 5a bc 13 8e c1 bc 65 e8 ea bc 25 c0 68 bc
       -0.013331012 -0.023627317 -0.028675267 -0.014205967
000110 6b c3 32 bc b3 e3 4f 3c 3c 17 c4 bc 0b ac e9 3c
       -0.010910849 0.012688565 -0.02393686 0.02852442
000120 39 b7 8d 3c c6 b6 b0 bc 59 13 e9 bc 94 b8 bf 3b
       0.017299281 -0.021571528 -0.028451608 0.005850861
000130 ff f3 1a bb 34 5a ca bc 8a 48 75 3c 5e 9b e5 3b
       -0.0023643968 -0.024701215 0.014970908 0.0070070466
000140 b6 c7 18 bd 27 c2 4f bc e9 6b 9c bc 67 dd 9b bc
       -0.037299834 -0.012680567 -0.019094424 -0.019026471
000150 54 1c d2 3c e8 70 fe bc 93 aa 23 bd 1b 11 0c bc
       0.025648274 -0.031059697 -0.039957594 -0.008549
000160 18 f7 03 bd 6b e9 f0 bc 18 46 bd b8 7b 5a 10 3c
       -0.03221807 -0.029408177 -9.025278e-05 0.008810635
000170 f5 ed 0e 3c 13 e0 33 bc 50 a1 93 bc 46 d6 0a bd
       0.008723726 -0.010978716 -0.018021256 -0.033895753
000180 f8 44 b7 bb 3d 79 f7 bc e8 92 89 3c 2c 73 31 bc
       -0.0055929385 -0.030209178 0.016793683 -0.010830682
000190 6c d6 08 bd d0 68 aa 3c 3e 47 0f bb cb 79 bf bc
       -0.033407614 0.020801932 -0.0021862532 -0.023373505
0001a0 39 0f fd bb 17 8e 43 bc f4 56 6a bb e4 96 27 bd
       -0.007722762 -0.011935732 -0.0035757395 -0.040915385
0001b0 e0 0b 9d ba ad 4e b1 bc b2 05 97 bc 96 33 96 bc
       -0.0011981688 -0.02164396 -0.018435333 -0.018335145
0001c0 18 7e 28 bd 9a b6 bf bc f9 13 a4 ba 55 fd d0 3c
       -0.041135877 -0.0234025 -0.0012518159 0.025511423
0001d0 15 07 6b bc cb 55 24 bd e6 2f 17 bb e4 52 ce 3b
       -0.01434495 -0.04012088 -0.0023069321 0.0062965024
0001e0 59 3e c3 3c 2a b4 68 3c 19 fb a8 bc b0 86 c8 3c
       0.02383344 0.014203111 -0.020627545 0.024478287
0001f0 fc f7 2d bb ed 43 c0 bb 5a 3a 18 bd dc 7a 0a bc
       -0.0026545515 -0.0058674724 -0.037165023 -0.0084521435
000200 5c d7 c1 bc be b3 73 38 03 36 20 3a 06 e4 f1 3b
       -0.023662262 5.8103113e-05 0.0006111564 0.007381919
000210 d5 42 fe bc f3 1b 3b bc 5c bb 11 bd bd 33 26 3c
       -0.031037727 -0.011420238 -0.03557907 0.010144171
000220 9d de 6b bc ca 1a b5 3c 73 22 f9 bc d9 c7 c3 3c
       -0.014396337 0.0221075 -0.030411934 0.023899006
000230 1c 87 db bc 72 78 c4 3c fb e7 b2 3c 27 2d 31 38
       -0.026797824 0.023983214 0.021839133 4.224214e-05
000240 99 ef a6 3c d5 6e b6 3c af 37 a9 bc 6d c0 d3 bc
       0.020377921 0.022269646 -0.020656435 -0.025848592
000250 88 8a a2 bc 7b ce 50 3c bf c4 e8 3a 22 1c de 3c
       -0.019841447 0.012744541 0.001775883 0.027113024
000260 eb 21 7d 3c fd 32 6d bc 31 f7 12 bd 3e 2c f2 3c
       0.015449981 -0.014477489 -0.03588027 0.029562112
000270 02 a4 7f 3c 67 15 fa 3b e7 88 95 bc ed f7 dd 3b
       0.015603067 0.007631946 -0.018253757 0.00677394
000280 2c 66 99 bc 1d 1c 66 3c 29 47 bd bb ce f0 b5 3c
       -0.018725477 0.014044789 -0.005776305 0.022209551
000290 b1 7c a7 bc e9 eb 00 3b ae d2 4e b9 4c 3e 23 bc
       -0.0204452 0.0019671863 -0.00019724175 -0.009963583
0002a0 33 46 24 bd 88 46 b8 3c 88 a7 c6 3c bf bd 24 bc
       -0.04010601 0.02249457 0.024249807 -0.010055005
0002b0 23 78 0d bc 1a ac 62 3c 4f 47 f0 bc ba 8e f8 bc
       -0.0086346 0.0138349775 -0.029330878 -0.030341495
0002c0 66 7c 27 bc 6c 6b d6 bc 8e b9 1b 3d ea 47 05 3d
       -0.01022253 -0.02617427 0.038018756 0.032539286
0002d0 12 f3 a2 3b 0b 39 49 3c de 33 ab 3c be 07 e9 3c
       0.004972824 0.0122816665 0.020898756 0.028446075
0002e0 d2 92 92 3c d9 65 c2 bb 2a 2e 58 bc ea ce a0 bc
       0.017892275 -0.0059325513 -0.0131946 -0.019629914
0002f0 17 cd 99 3b b1 1b e0 3a 29 16 1e bd 4d 1d 3e 3c
       0.004693638 0.0017098096 -0.038595352 0.011603666
000300 d6 f5 6d bc 8e a6 bb 3a 0c 36 7b bc c2 cf 9a 3c
       -0.014523944 0.0014316605 -0.01533271 0.018897895
000310 b5 34 cd bc c9 93 01 bd 3f 9c de 3c d5 6c d1 bc
       -0.025049547 -0.03163508 0.027174113 -0.02556459
000320 75 cc 87 bc 1b ee 24 bb 5e 62 87 bc 05 0b 5c bc
       -0.016576985 -0.0025166336 -0.016526397 -0.013430362
000330 ba 77 c4 3c 37 5e a8 3c 8e 79 2d 3c 70 ff 2a 3d
       0.023982871 0.020552738 0.010588063 0.04174751
000340 0a 0c 62 bb 2f 6d 3d 3b 72 6d 14 39 d3 c5 84 3d
       -0.003449204 0.002890419 0.00014155151 0.064830445
000350 cf c3 38 3d 00 fb 3f 3c 94 5f fb 3c 0f 98 d9 3c
       0.045108613 0.011717558 0.030685224 0.026561765
000360 7b 17 24 3c ad fb 10 bc f3 7c e9 3b 5f 4e e5 bc
       0.010015364 -0.008849067 0.007125491 -0.027991472
000370 d5 0d b8 3c da 38 6d 3c 2e dc cc 3c 5f 83 19 3c
       0.022467533 0.0144788865 0.025007334 0.0093697
000380 d4 44 91 bb 67 5a b2 3c fc 2e e3 bc 8c de 9f 3c
       -0.004433254 0.021771623 -0.027732365 0.019515298
000390 f0 ab 60 3c 85 02 10 bd 9a 03 af ba b8 09 d2 bc
       0.013712868 -0.035158653 -0.0013352514 -0.0256394
0003a0 60 cd da 3c fe b1 8a bc 29 b0 a7 ba d6 5a d3 bb
       0.026709259 -0.016930576 -0.0012793589 -0.0064500375
0003b0 38 14 0b 3d b0 eb 5a 3d 1a 0e 31 3d bc 5e 85 3a
       0.03395483 0.053447425 0.04322634 0.0010175328
0003c0 97 ce 31 3d d0 88 85 3b 3c 39 f7 3b 33 33 58 3c
       0.04340991 0.004075147 0.0075446647 0.013195801
0003d0 eb f1 86 3c 60 89 e3 bc d0 ba 88 3c 9f d5 99 3c
       0.016472777 -0.027775466 0.016690642 0.01877862
0003e0 c7 73 12 bd 41 fa 44 3c 8f 39 0c 3c fb 5a 8d bc
       -0.035754945 0.012022556 0.008558645 -0.017255297
0003f0 13 f8 52 bb 2d a7 c0 ba 9a be d3 bc f9 78 4e 3a
       -0.003219132 -0.001469826 -0.025847722 0.00078763027

0.bias f4 [128]
000000 eb 2c eb bc 20 40 81 3c 58 2c ce 3c 94 9b 08 3d
       -0.028707942 0.015777647 0.02516763 0.033351496
000010 05 29 7b 3c 32 d2 d1 3c f3 52 1d bc dd a1 26 3c
       0.015329604 0.025612924 -0.009602296 0.010170427
000020 e3 32 94 bc 24 06 25 3b ee 19 cf 3c 2d 5c d2 3a
       -0.01809067 0.0025180662 0.025280919 0.0016049199
000030 08 f1 d5 bc af 6c 87 bb a6 e8 e5 3c 0d 80 ab bb
       -0.02611591 -0.004132829 0.028065037 -0.0052337707
000040 53 a2 9f 3c fc b7 9d 3c 33 9b 46 3c 5d fd 56 3b
       0.019486582 0.01925277 0.012121963 0.0032804825
000050 d2 30 20 3d 6e 65 e6 39 76 94 17 bd c6 e2 aa bc
       0.03910906 0.0004394459 -0.037006818 -0.020860087
000060 2e ee 48 3c 5f df dc 3c 6c 66 da bb 9a bc a9 3c
       0.012263818 0.02696198 -0.0066650417 0.020719815
000070 35 9f 43 3c b6 a6 66 bb c2 4d a8 bc 9c b8 d3 3c
       0.011939813 -0.0035194582 -0.02054489 0.025844865
000080 2c ab ca 3c bd 8a 11 3d 65 c2 bd bc 73 17 79 bc
       0.024739824 0.0355327 -0.023163984 -0.015203345
000090 83 0b c1 bc 40 1e a2 3c ea 7d a3 3c a9 95 b7 bc
       -0.02356506 0.019789815 0.019957501 -0.02241023
0000a0 3e 9c 4a 3a 7a db 93 3c c0 30 14 bc b7 f0 02 bd
       0.00077289704 0.01804899 -0.009044826 -0.031967845
0000b0 fb 36 c9 3c 7a 01 15 3d 27 25 10 bc cb 4e 2a bc
       0.02456235 0.03637836 -0.00879792 -0.010394762
0000c0 59 00 db 3b 6e 80 80 bb fd af b3 bc 37 ce 0f bc
       0.006683391 -0.00392156 -0.021934504 -0.008777193
0000d0 e6 7b 36 3c 5e 28 9e 3a 2e 13 d6 3b b6 6b 24 3c
       0.011137938 0.0012066474 0.006533048 0.010035446
0000e0 51 b7 d9 bc 78 79 96 bc e2 9f b3 bc 30 2f 08 3d
       -0.02657667 -0.018368468 -0.021926824 0.033248127
0000f0 6c b2 c1 3b 4b 3c e3 3c 8a 9f d5 3c 04 4c ec bc
       0.005911162 0.02773871 0.02607705 -0.02884484
000100 88 de cc bc aa 3d 40 bc 67 ea a3 bc 58 df 04 bc
       -0.025008455 -0.011733452 -0.020009233 -0.00810989
000110 7d 5c df 3c 44 0f 9f bc 1b 4c 29 bc 6c e0 19 bc
       0.027265782 -0.019416459 -0.010333086 -0.009391885
000120 7f 23 cb 3c c5 ee c8 bc 17 90 a1 3c 49 1a af 3c
       0.0247972 -0.024527917 0.019722028 0.021374838
000130 48 39 f7 bc 20 70 51 3c 0c 40 5f 3c 22 c4 33 3c
       -0.030178681 0.01278308 0.01362611 0.010972055
000140 cb d2 b2 bb e6 49 27 3c b9 1b d2 3b 6a c7 01 3d
       -0.0054572574 0.01021049 0.006411996 0.031684317
000150 de 43 8e bc 5c 9b 14 3d 5d 95 95 3c 73 be 15 3d
       -0.017366346 0.036280975 0.018259699 0.03655858
000160 ab 64 99 bc 31 d5 88 bc 4f 06 46 bc f5 0e 8d 3c
       -0.01872476 -0.01670322 -0.012086465 0.017219046
000170 a0 48 77 bc 11 92 6a 3c fd 33 a9 3c b0 e7 f7 bc
       -0.015092999 0.0143170515 0.020654673 -0.030261844
000180 47 c4 4d 3b 70 7e a4 3b 87 e0 e6 3c a6 ac d5 bb
       0.0031397508 0.0050199553 0.028183235 -0.0065208254
000190 07 17 ec bc 53 ba b6 3c 89 da 59 3c f4 30 ae bc
       -0.028819574 0.022305643 0.013296732 -0.021263577
0001a0 e8 8c b8 bc b9 5d 34 3c f4 a1 f5 3c 19 d3 a7 3c
       -0.022528127 0.011008673 0.029984452 0.020486401
0001b0 ec 4a e0 bc 49 4d c4 3c b3 14 f4 bb a4 ba 71 3b
       -0.027379476 0.023962634 -0.0074487566 0.0036884928
0001c0 04 54 eb 3c 40 c9 09 3d 9f 59 f7 3b 46 f2 62 bb
       0.028726585 0.033639193 0.0075485255 -0.003462927
0001d0 ee 0a 26 ba 9b 53 05 3d 29 70 1e 3c 1d dd 23 bc
       -0.0006334026 0.032550436 0.009670296 -0.010001448
0001e0 7f 73 30 3b bb 5a c8 bb e1 92 ec 3c 32 91 47 bb
       0.002692431 -0.0061143315 0.028878631 -0.0030451533
0001f0 e1 c1 d5 bc ef 82 b9 3c 82 85 ed bc b3 4d 8e 3c
       -0.026093425 0.022645442 -0.028994326 0.017371034

2.weight f4 [64, 128]
000000 8f 85 1c 3d a0 56 89 3d fc 78 b8 bb 59 96 dc bc
       0.03821331 0.067059755 -0.005629657 -0.02692716
000010 b4 f2 bd bd 2f 74 02 bd e5 50 bc 3d 15 41 99 3d
       -0.092748076 -0.031849083 0.09195117 0.074831165
000020 c4 15 a9 3d 66 d6 97 bd eb cb 47 bc bd 4b 8f bd
       0.082561046 -0.0741394 -0.012194614 -0.06996868
000030 8b 39 b4 bd 28 31 d6 bd 9d 18 b5 3d f6 3c 5b 3d
       -0.08800038 -0.104585946 0.08842585 0.053524934
000040 da 59 69 bd a0 ef bb bc 61 ac b7 3d 96 2d 58 3c
       -0.056970455 -0.02294141 0.089684255 0.013194462
000050 06 27 40 bc bb 5e b4 3d 4a e4 f5 bd 33 d0 50 3d
       -0.011728054 0.08807131 -0.12006433 0.050979804
000060 55 0c ca bd 15 34 a8 3d 25 2b f2 3c a0 b4 41 3e
       -0.098656334 0.08213059 0.029561589 0.18916559
000070 1f f5 ce bc 27 73 c4 3d c7 ec 12 3d 05 b9 ce bd
       -0.025263367 0.09592276 0.03587034 -0.100938834
000080 b3 4c 53 3c ad 7f bd 3d a5 b6 dc bc 65 39 d0 bc
       0.0128967045 0.09252868 -0.02694256 -0.025417993
000090 7f 7e 72 3d 51 01 1d bc c3 99 e5 3c 10 bc 24 3d
       0.059202667 -0.009582833 0.02802742 0.040218413
0000a0 3a fb ca 3c 0b 94 0b 3c b4 bb 6a bd f9 68 57 3c
       0.024777997 0.008519183 -0.057307914 0.013147586
0000b0 da b4 0f 3d 44 95 b5 3d 2d a4 c9 3c fa 36 b1 3d
       0.035084583 0.08866361 0.024614418 0.08653064
0000c0 86 58 a9 3d 5a 4d 67 3d ae b8 38 3c 59 69 5b 3d
       0.08268838 0.056470253 0.0112745 0.053567264
0000d0 05 d6 6a bd 98 1d 0c 3d c3 1e f0 bc 19 6f df bd
       -0.05733301 0.03420791 -0.029311543 -0.10909862
0000e0 1d 60 9b 3d 25 e9 dc bd 7a f0 da bb 1e 2b ed 3d
       0.075866915 -0.10786656 -0.006681499 0.115804896
0000f0 51 cb ae 3d 39 9f 4d 3d 21 1c 80 3c 9a 5e c3 3d
       0.08534873 0.050200675 0.015638413 0.09539528
000100 67 4d 2b bd 1e 5e 6a bd c0 f8 5f bd 83 b1 07 3d
       -0.041821864 -0.057218663 -0.054680586 0.033128273
000110 3f e3 cf bd 44 19 a0 3d d3 fe 60 3d 0f 8c f0 3c
       -0.10150766 0.07817319 0.05493052 0.02936366
000120 fb 4e 29 bd b6 db a7 bd 3d e7 fa b9 a6 5e f4 bc
       -0.041335087 -0.081962034 -0.00047856002 -0.029830288
000130 96 7d ab 3d 1d 32 97 bd b8 e5 bc 3d 4e 1f 17 3d
       0.08373563 -0.07382605 0.09223503 0.03689509
000140 f4 fc 97 3d 80 54 ab 3d 94 2d f9 3d 8e 2a 63 3c
       0.07421294 0.083657265 0.121668965 0.013865126
000150 83 4a 03 bd 8a e8 62 3c 31 a4 a1 bd 7e 58 8f bd
       -0.03205348 0.013849387 -0.07892645 -0.069993004
000160 95 23 ad bd 1d fd ff 3d 4c 45 33 bc 6f 84 c3 3d
       -0.08454052 0.124994494 -0.010941815 0.09546744
000170 90 a5 8e bd 0e 3f 24 3d c5 ed 65 3d f5 ec 4f 3d
       -0.06965172 0.040099196 0.056134958 0.05076309
000180 9d a5 01 bd 03 4a 49 3d 1e 9b 9e bd c9 c8 8d bd
       -0.03165208 0.04914285 -0.0774443 -0.06923062
000190 14 2c 58 bd 7a 44 42 3d 4a 66 3a 3c 0e 1d 0d be
       -0.05277641 0.047428586 0.011376927 -0.13780615
0001a0 4d ef 57 3c 3c fc cd 3d fd 5e 89 3d 9f e1 2e bc
       0.013179612 0.100578755 0.06707571 -0.010673909
0001b0 11 92 fc ba eb 88 84 3c 25 d5 b1 3d eb c8 19 bd
       -0.0019269605 0.016178569 0.08683232 -0.037545126
0001c0 bf fc a0 bd 3c 7a df 3c 14 81 97 3c cf 23 96 3d
       -0.078607075 0.027279966 0.018494166 0.07331049
0001d0 32 15 f2 3d d3 cf 9f 3d 53 34 8b 3d 83 01 84 3d
       0.11820449 0.07803311 0.067970894 0.06445601
0001e0 1d 99 ab bd d8 ed d7 3b 5b 6e ca 3d 3f f6 8f bc
       -0.083788134 0.0065896325 0.0988433 -0.017573474
0001f0 50 08 62 bc ad f1 4c 3d 2a 20 3e 3d 48 be b7 3d
       -0.013795927 0.050035167 0.046417393 0.0897184
000200 2c a6 ac bd 50 b6 8e 3c 20 3a ba 3b e3 00 52 bd
       -0.08430132 0.017420918 0.0056831986 -0.051270377
000210 9a 40 6b 3d b3 01 09 bd a1 2b 8b bd b0 7d 8e bb
       0.057434656 -0.033448886 -0.06795431 -0.004348479
000220 80 e5 2f 3b be 1c 7d 3d 7d 55 9c 3d 4a 38 7b 3d
       0.0026839674 0.06179499 0.07633493 0.06133298
000230 0a 9a 73 3d e0 fa 53 bd 90 25 93 3c 3d 42 a5 3d
       0.059473075 -0.051752925 0.017962247 0.080692746
000240 8e ba 35 bd e8 f8 0e bc af 6e 2f bd 62 9f f4 bc
       -0.044367366 -0.008726336 -0.042830165 -0.029861156
000250 cd 18 8d 3d 00 cb b6 bc 06 99 29 3d 4c 1a c6 bc
       0.06889496 -0.022313595 0.0414057 -0.024182461
000260 fe 6a 63 3d 54 b4 b6 bc 10 01 1a bc 70 0a 92 3b
       0.055521958 -0.022302784 -0.009399667 0.0044568107
000270 cd 8d 8e 3d f0 9e f1 bc 60 20 b1 bc ad 15 9d bd
       0.0696064 -0.029494733 -0.021621883 -0.0767015
000280 20 3b c9 3b b8 f1 37 bc 94 ae f3 3c 7e 7b 3f bd
       0.0061410815 -0.011227064 0.029746331 -0.04674863
000290 d0 c2 e6 3c c7 6a b1 3d 6b a5 8d bd 4b 99 83 3d
       0.028169066 0.08662944 -0.069163166 0.06425723
0002a0 18 3b a3 bd fc 3f 58 bd e3 e2 b4 bd c0 b2 95 3c
       -0.079702556 -0.052795395 -0.08832338 0.018273711
0002b0 54 67 e8 3c 72 89 a1 bd 68 39 a0 bd 7f 5b 8d 3d
       0.028369583 -0.07887544 -0.078234494 0.06902217
0002c0 78 2c aa bd 00 5f b9 b9 4c 6c eb 3c b8 d5 94 bc
       -0.08309263 -0.0003535673 0.028738163 -0.018168315
0002d0 90 21 2d bd 20 e6 7f 3c 64 08 84 bc d2 58 15 bd
       -0.042268336 0.015618831 -0.016117282 -0.03646166
0002e0 06 ad 67 3d 24 78 74 bd 48 aa a8 bd e2 5d e9 bc
       0.056561492 -0.059684888 -0.082356036 -0.02848715
0002f0 76 e3 02 3d ac 6e 9b bc d1 77 a6 bd 1a 3c 33 3d
       0.031955205 -0.01897367 -0.08128322 0.04375849
000300 cd a7 89 3d 2f 63 87 3d ff 71 a3 3d 78 1f 8f bd
       0.067214586 0.06610715 0.079807274 -0.06988424
000310 a8 62 35 bc c1 2c 9c 3d 15 74 a5 bd 40 dc 76 3c
       -0.011070885 0.07625724 -0.080787815 0.01506716
000320 7c 63 c0 bc ce ea 2a 3d 40 bc 9f 3b 94 ed c7 bc
       -0.023484938 0.041727833 0.004874736 -0.024405278
000330 36 7d 72 bd fc 1c db 3c 30 b4 31 3c 18 12 aa bd
       -0.05920144 0.02674722 0.010846183 -0.08304232
000340 ba 4f da bc 9e 47 56 3d 40 25 10 3d 1b 33 75 bd
       -0.026649345 0.052314393 0.035191774 -0.05986319
000350 b2 1b f2 bc 49 9a b0 3d 97 fb b0 3d 4b 82 86 bd
       -0.029554222 0.086231776 0.08641737 -0.0656782
000360 10 ae 89 bd 4a e5 48 bd 72 cf 99 bd 90 57 b0 bd
       -0.06722653 -0.049046792 -0.0751027 -0.08610451
000370 80 41 c9 bb 7e fb 25 3d e0 16 ef 3b 6c 13 95 bc
       -0.0061418414 0.040523045 0.007296428 -0.018197738
000380 70 af 68 bd cb 9c 85 bd a4 84 d5 3c 18 93 c8 bc
       -0.056807935 -0.065240465 0.026064225 -0.024484202
000390 80 49 30 bb 36 eb 87 bd 5c ca 90 bc 80 c8 b3 3b
       -0.0026899278 -0.0663666 -0.017674617 0.005486548
0003a0 74 0d 01 bd d6 06 7a 3d 7f 6f b3 3d fc ea 6d bd
       -0.03150697 0.061041676 0.087615006 -0.058085427
0003b0 40 a7 2f 3b 02 6e 50 3d d3 f6 35 bd 83 df 8d 3d
       0.002680257 0.05088616 -0.044424843 0.06927397
0003c0 00 41 87 bd e0 e3 47 3b cd c1 07 bd 7a bb 20 3d
       -0.06604195 0.0030500814 -0.033143807 0.03924129
0003d0 40 61 93 3b 74 2d d2 3c 02 7d da bc 70 6e dd 3b
       0.004497677 0.02565644 -0.026670936 0.00675755
0003e0 36 d2 51 3d 3e 65 54 3d a9 ed 81 bd 40 76 0d bc
       0.051225863 0.051854365 -0.06344158 -0.00863415
0003f0 62 3e a8 bd 8e da 86 bd 74 7f b1 bc 2d 15 21 bd
       -0.082150236 -0.06584655 -0.02166722 -0.039326835

2.bias f4 [64]
000000 18 12 95 3c 1b 0a 38 bd 8e dc 38 3d ca 51 17 bb
       0.018197104 -0.044931512 0.045132212 -0.0023089522
000010 75 a5 92 3c d0 b2 a7 bc 6e 82 9c bd 24 6a e1 bc
       0.017901162 -0.020471007 -0.07642065 -0.027516432
000020 b3 9a 72 3d 6d 75 1f bd 9c 5d a5 3d 0e a9 e5 3c
       0.059229564 -0.038930345 0.08074495 0.028034713
000030 09 b2 0f bd 24 30 ea bc 3b 6f 8e 3d 95 7c 23 bd
       -0.035081897 -0.028587408 0.06954809 -0.039913733
000040 c3 72 a4 3d 9e 05 a2 3d ba aa 92 bd 82 ee 53 3d
       0.080297016 0.07911228 -0.0716147 0.05174113
000050 94 3d 6c 3c e3 73 b2 3d ca 0f 79 bd 4e 36 2f bb
       0.014418978 0.0871351 -0.060806073 -0.002673525
000060 2f b7 8d bd 80 ef 92 3d 02 6f dd bb 0b 39 0f 3d
       -0.06919705 0.07174587 -0.006757618 0.03496651
000070 dc ef 42 bd a8 b7 c6 3c e6 63 2d bb 53 ce bd bc
       -0.04759203 0.024257496 -0.002645725 -0.023169672
000080 f1 98 86 3d 88 9f 08 bd 5a 7b 2e bc 46 6c 76 bc
       0.0657214 -0.033355266 -0.0106495265 -0.015040463
000090 d1 06 aa bd 15 5f d9 bc 45 56 93 bd 25 3f 9d 3d
       -0.083020814 -0.026534596 -0.07194189 0.076780595
0000a0 60 39 8a bc 28 fa 52 bc e9 2d 95 bd 59 e6 89 bd
       -0.016873062 -0.012877025 -0.07284147 -0.067333885
0000b0 27 1f a7 3d f1 38 f5 bc 81 db 45 3d 7c 2b a1 bd
       0.08160239 -0.029934378 0.04830504 -0.07869622
0000c0 8d 0d 07 3d ab 71 a5 3d 6c 22 ff 3c c8 36 a7 3c
       0.032971907 0.08078321 0.031144343 0.020411864
0000d0 bd 4a c0 3c 07 61 7a bd 76 b3 22 bd f1 4a 9c bd
       0.023473138 -0.06112769 -0.03972193 -0.076314814
0000e0 fd 9e 56 bc a1 b9 15 3d d8 de 60 bc df 73 11 3c
       -0.013099429 0.036553983 -0.013725005 0.0088777235
0000f0 f4 c8 54 bd 37 03 58 3d a0 df bc 3d 57 d5 f7 3c
       -0.051949456 0.05273744 0.092223406 0.030253096

4.weight f4 [10, 64]
000000 01 c6 2e 3e f0 cc 21 bc dc 7c a1 3e 0b 8f 97 bd
       0.1706772 -0.009875521 0.31540573 -0.0740033
000010 99 46 be 3d db e2 6d 3e ac c6 74 bd c4 7d 62 be
       0.09290809 0.2323107 -0.05975978 -0.22118288
000020 9f 6b d9 bd 20 f3 96 be 0d ef 54 3d 70 2d b9 3e
       -0.1061623 -0.29482365 0.05198579 0.3616748
000030 03 dc 54 3e 2e 9a ae bd d9 dc 82 be b9 02 9d 3d
       0.20787053 -0.08525501 -0.25559118 0.07666535
000040 75 62 57 3d bf f8 3d 3e 74 f7 4a 3e 64 f0 43 3e
       0.05258413 0.1855192 0.19820958 0.1913467
000050 84 06 17 3e 63 1f 5b be 05 7d d3 bd 3e e2 0c be
       0.1474858 -0.21398692 -0.1032658 -0.1375818
000060 5a 03 0a be 68 4d 6c bd 14 67 29 bd b1 dc 3a 3e
       -0.13477841 -0.057691008 -0.04135807 0.1824825
000070 cf 08 9f bd 81 74 56 3e 61 8b 0f be a0 f0 23 3d
       -0.07765352 0.2094288 -0.14018013 0.0400244
000080 f7 3b a0 bc d1 cd c9 bd 8a 49 02 be b8 b0 79 3c
       -0.019559843 -0.098537095 -0.12723365 0.015239887
000090 dd 45 17 bc 7e 2b e2 bd 5e 3f 99 bb ff 47 07 3e
       -0.009232965 -0.11043452 -0.0046767434 0.13211058
0000a0 df 7b f7 bd cd 19 1e be 50 4c f9 bd 35 93 83 3e
       -0.120841734 -0.1543953 -0.121727586 0.25698248
0000b0 c7 2c df bd e1 b9 be bd 0a 19 8c 3d ea f2 a2 3d
       -0.108972125 -0.09312797 0.06840713 0.079564884
0000c0 19 1b 5b 3d ec fb ea bd d9 d8 65 3e d4 94 a5 3d
       0.05349264 -0.114738315 0.22446002 0.08085027
0000d0 e7 c5 70 bc 87 17 8e be a2 f8 8a 3e 3d 4b 07 be
       -0.014695621 -0.27752325 0.27142817 -0.13212295
0000e0 b9 6a 9a be d3 e9 52 3e 69 97 b7 3c 05 bc 1a be
       -0.30159548 0.2059701 0.022411065 -0.15110786
0000f0 d6 b8 b9 bd ec 2d 47 be e0 fb 2a 3d 63 29 cd 3d
       -0.09068458 -0.19451112 0.041744113 0.100176595
000100 cf 54 ad 3c 10 6c 60 bc c4 6d 5f be 59 28 a5 be
       0.021158604 -0.013697639 -0.21819216 -0.32257345
000110 36 05 22 3c d7 a1 7e be d8 bf de bd 9c 5b 16 3e
       0.009888938 -0.24866425 -0.10876435 0.14683384
000120 13 cc 35 3e ee 88 d0 3c 4a c7 5e 3e 93 2a 2b 3b
       0.1775363 0.025455918 0.2175571 0.0026117906
000130 27 81 01 be bf 57 9d 3d 3c 6f 9f 3d 2d 8a d6 3d
       -0.12646924 0.07682752 0.07784888 0.10475574
000140 c4 17 6d be a3 02 5d be ed 57 52 be dc 76 45 bd
       -0.23153597 -0.21583037 -0.20541354 -0.048209056
000150 00 50 d7 3d 6e d8 a4 3e 95 56 0e 3e 73 fd 90 bb
       0.10513306 0.32196373 0.13900216 -0.0044247448
000160 ec ce 5f bd 87 ad 87 3b e9 80 8b bd bd 8f dd bd
       -0.054640695 0.004140559 -0.06811697 -0.108184315
000170 f8 dc 02 3e e9 4c 08 be 45 63 57 be 34 73 6b bd
       0.12779605 -0.13310589 -0.21033962 -0.057482913
000180 4e 9b 86 3d cb 86 20 3e b9 72 94 3e d8 74 a8 bb
       0.06572591 0.1567642 0.28993776 -0.005140882
000190 62 8f 2a 3d 28 d5 d8 bc 1e ea 12 be 83 15 24 3e
       0.041640647 -0.026468828 -0.14347121 0.16023831
0001a0 2f 6f 92 bc b4 e1 af be ae 5b da 3d 41 58 63 bd
       -0.017875282 -0.34351885 0.10662018 -0.055504087
0001b0 87 92 b5 3e c5 b4 02 bd 11 02 78 bd e2 ff d3 3d
       0.35463354 -0.031910677 -0.060548846 0.1035154
0001c0 9c 33 6e 3d 5e 54 01 3e 8b 57 72 be 86 3b 3a be
       0.058154687 0.1262984 -0.23666207 -0.18186769
0001d0 69 6a a8 3d dd 5d c3 3c 8b 83 30 be 03 91 88 be
       0.08223421 0.023848468 -0.1723768 -0.26673135
0001e0 a7 25 67 3e ff 52 1c 3e 56 94 e6 3d 66 82 eb 3b
       0.22572957 0.15266035 0.112587616 0.0071871756
0001f0 8d 0a b3 3e ae e7 8b bd e6 fb a5 bc 33 8b b9 be
       0.34968987 -0.06831299 -0.020261716 -0.36239013
000200 c8 e6 3c bc 0e e3 8f 3d 07 bf 8a 3e 91 17 4b 3e
       -0.011529632 0.07025729 0.27098867 0.19833209
000210 2b 99 7d bd 67 28 9a be 20 d1 db 3c e4 d5 47 be
       -0.06191365 -0.3010895 0.026833117 -0.19515187
000220 aa 67 56 3e 21 5a 35 3c 83 5d 58 be f2 51 c3 3c
       0.20937982 0.011068852 -0.21129422 0.023842786
000230 17 c9 03 3e 4f 24 d8 bb 71 24 e5 bd 43 20 e5 bd
       0.12869678 -0.006596125 -0.11188591 -0.11187794
000240 af 83 e3 3c d5 b7 88 3e f9 6c 99 3e 36 e5 9b bd
       0.027772753 0.26702753 0.29965952 -0.07612078
000250 c2 10 8b be 1f 5d 84 3e bf 46 b3 3e f4 b4 18 bd
       -0.27161223 0.25852296 0.35014912 -0.037281945
000260 10 ad 0f 3e 07 c0 4c 3d 37 be a6 bd 28 35 08 be
       0.14030862 0.04998782 -0.08141749 -0.13301528
000270 eb b8 2e be 10 37 7b 3c 48 bb 76 3e de bc 7a 3d
       -0.17062728 0.015332952 0.2409488 0.061215274
000280 fd f7 de bd e3 82 ec 3d af ab c0 bd b5 2b c8 3d
       -0.10887144 0.11548402 -0.09407746 0.097739615
000290 de c0 32 be 8f 49 fc bd 14 d4 13 be 4e 9c a6 3e
       -0.17456385 -0.12318718 -0.1443637 0.32541126
0002a0 cb 85 9b bd bd 65 16 be 3a 99 12 bc a8 72 45 be
       -0.07593878 -0.14687248 -0.008947665 -0.19282019
0002b0 ef f0 0b 3d 8f 50 d7 bd 77 74 b9 bc c4 71 5a be
       0.03416532 -0.10513412 -0.022638543 -0.2133246
0002c0 8a f7 92 3d ae d3 b4 3d 0e f0 36 be aa d5 62 be
       0.071761206 0.08829437 -0.17865011 -0.22151819
0002d0 c5 9c fe bd fd f2 58 be a4 64 98 be 94 b6 93 3c
       -0.12432245 -0.21186443 -0.29764283 0.018031396
0002e0 22 09 36 bd da 97 3e 3e 8a 02 04 be 14 68 4a be
       -0.044442303 0.18612614 -0.12891594 -0.19766265
0002f0 04 ca 5b 3e aa 77 e5 bd 8f b4 ff 3d 57 e4 73 3e
       0.21463782 -0.11204465 0.12485611 0.23817573
000300 cc cb a4 be a8 d3 09 3d c6 a1 f7 bd 97 b9 8b be
       -0.32186735 0.033649117 -0.12091403 -0.2729003
000310 62 fa f8 3c dd a6 b6 bc 44 a0 18 3d 37 f7 2a be
       0.03039283 -0.022296363 0.037262216 -0.16695867
000320 59 b5 fa bd 8e ed 5f 3e 5b 76 58 bd b0 81 21 bd
       -0.122416206 0.21867964 -0.052847248 -0.03943032
000330 7e 03 48 3d 84 f0 bd bc 4a eb 26 be 91 b7 12 bd
       0.048831455 -0.023185976 -0.16300693 -0.035819594
000340 fc 89 74 be a5 36 64 3e ba 3d e9 3d 05 71 64 3e
       -0.23880762 0.2228647 0.113887265 0.22308739
000350 9c 5f 6a be 91 b9 a1 be 60 bd 3b 3e cd 71 1e bd
       -0.22888035 -0.31586888 0.1833396 -0.038682748
000360 c5 99 88 be 4f dd 55 3c 78 24 eb 3d e9 c0 1e 3e
       -0.26679817 0.013053252 0.11481565 0.15503277
000370 09 7f 54 bd 56 61 9e 3d 3a 74 84 3e 58 ca df bc
       -0.051878963 0.07733409 0.25869924 -0.027318165
000380 78 0a 9e bc eb 24 91 3d 7b 81 d0 3d d5 3d 66 3e
       -0.019292101 0.0708712 0.101809464 0.22484525
000390 93 88 06 be 4b 21 6a 3e 70 d3 d3 3d 57 23 ad 3e
       -0.13138036 0.22864263 0.10343063 0.33816025
0003a0 d0 14 b0 bd c8 b2 6e 3e be d9 bc 3c 00 41 1f 3e
       -0.0859772 0.23310387 0.023053046 0.1555214
0003b0 a8 06 d3 3d bc 89 78 3e 6d 06 f0 bd ae d7 40 be
       0.10304004 0.24271291 -0.117199756 -0.18832275
0003c0 22 2a 38 3d 24 17 04 3e 6e 33 03 be 5b d5 02 be
       0.044962056 0.12899452 -0.12812588 -0.12776701
0003d0 84 6f ab bb ba 6f 03 3e 14 f4 0e 3e 3d 37 5b bc
       -0.0052317996 0.12835589 0.13960296 -0.013379869
0003e0 c6 c7 44 3e a7 03 3a 3d 3e c8 50 3d ef 81 ba 3e
       0.19216833 0.04541364 0.050972216 0.36427256
0003f0 60 55 8c be 06 35 26 3e 19 37 b4 3d 45 cc 86 be
       -0.27408886 0.16231164 0.087995715 -0.2632772

4.bias f4 [10]
000000 58 ec b8 3c 0d 28 78 3d c4 5f d7 3d 8a 59 ff bd
       0.022573635 0.06058507 0.10516313 -0.1246825
000010 76 4f 89 3d 34 71 fe bd c6 25 de 3d 22 ea 0a 3d
       0.06704609 -0.124239355 0.108470485 0.033914693
000020 73 d7 98 3c 38 38 7c 3d
       0.018657422 0.061577052
