models/digit_classifier_model.pth (torch, 440414 bytes, 6 tensors)

0.weight f4 [128, 784]
000000 65 62 62 bc 5b eb fc bc 2f 9b bd 3c 09 5e 00 3d
       -0.013817404 -0.030873945 0.023145286 0.03133968
000010 4e bc 2c bb 12 cc 26 bc 4b 90 1c bd 36 a1 9a bb
       -0.0026357356 -0.01018049 -0.038223546 -0.004718925
000020 16 f4 13 bd 27 8b 93 bb 9d ad 11 3c d5 3d f3 3c
       -0.03612145 -0.0045026722 0.00889149 0.02969257
000030 d7 27 c6 3c fd 43 03 bd fd ef cc 3c 22 d4 46 3c
       0.024188919 -0.03204726 0.02501678 0.012135537
000040 25 99 0b bd 21 e4 9c bc de 25 95 bb b8 89 8d bb
       -0.034081597 -0.01915175 -0.0045516333 -0.004319396
000050 bd 65 93 3c f9 fc d0 bc 2d 2f 85 bc 98 91 03 bd
       0.017992849 -0.025511252 -0.016257847 -0.03212127
000060 41 bd e2 bc 64 af e6 3c b3 1c 3b 3b f7 e0 82 bb
       -0.027678134 0.028159805 0.0028551042 -0.003994103
000070 69 f2 65 3c 7b 0c bf bc 25 b3 10 3b c5 96 8e 3c
       0.014034846 -0.02332138 0.0022079435 0.017405877
000080 c9 5e 8b 3b a1 30 f3 bc 56 ed ea bb 67 6b af bc
       0.0042532426 -0.029686274 -0.007169406 -0.021413518
000090 ba 3b 77 3c 7d c2 d1 bb 2a 68 3f 3b 30 88 06 bd
       0.0150899235 -0.0064013586 0.0029206374 -0.032844722
0000a0 75 7b e7 bc 73 a1 ef 3c 7f d4 00 bd 98 9f f2 3c
       -0.028257111 0.02925179 -0.031452652 0.029617116
0000b0 7f ca ef bc 0e af a2 3b 34 d0 12 bd ff 35 d2 3c
       -0.029271362 0.004964716 -0.03584309 0.025660513
0000c0 4a 1a 47 bc 95 89 69 b9 d8 f9 b3 bc 1b 87 00 3b
       -0.012152264 -0.00022271865 -0.02196972 0.001961178
0000d0 b7 c9 65 bc ed 1f f1 bc 1a c5 0b bd 80 cc 03 bd
       -0.014025143 -0.029434169 -0.034123518 -0.03217745
0000e0 d5 ed 21 bc 2d 0c f6 bc c5 3d c3 3c b7 b5 a5 bc
       -0.009883364 -0.030035103 0.023833165 -0.02022825
0000f0 c1 fe 92 bb bf b3 da 3c e7 82 8b 3c dd 45 86 3c
       -0.0044859354 0.026697038 0.017030193 0.016390735
000100 5f 32 6d 3c 90 62 c0 bc e3 10 b0 3b 04 54 74 3c
       0.014477341 -0.023484498 0.005373107 0.014912609
000110 7e 87 10 bd 06 6d 9d bc e9 96 cd 3c 79 ee fb bc
       -0.035285465 -0.019217025 0.025096374 -0.030753361
000120 67 d6 0f bd 7e 5f 78 3c 35 42 05 bd 5d b6 f7 bc
       -0.03511658 0.015159486 -0.032533843 -0.030238325
000130 92 c0 c2 3c d4 22 a3 3c b6 2d 2f 3c d0 a5 df 3c
       0.023773465 0.019914068 0.010692051 0.027300745
000140 dc 5f f6 bb 69 4d 01 3d c1 fb 40 3c 9c 64 33 bc
       -0.0075187515 0.031567965 0.011778773 -0.01094928
000150 24 7b 03 3d 98 ec 0a bc 0d 8d d0 3c 78 ad e7 3c
       0.032099858 -0.00847926 0.025457883 0.028280959
000160 05 fb 39 bc 62 93 24 39 15 00 c9 bb 98 fd 4c bc
       -0.011351352 0.00015695163 -0.006134043 -0.012511633
000170 12 b1 e3 bc a8 89 a2 bb ba 5e f2 3c a5 f9 c9 3b
       -0.027794395 -0.0049602576 0.029586185 0.006163793
000180 bc cf f2 bb 5a ad 94 3c 6a 98 ef bc 6f f5 3a bc
       -0.007410018 0.018149067 -0.029247481 -0.011411055
000190 64 9d 63 bc f0 12 8c bc 88 1d 88 bc c5 48 1d bd
       -0.013892505 -0.017098874 -0.016615644 -0.038399477
0001a0 22 a4 21 3a d3 00 9e 3c fa ee 02 bd 76 03 04 bd
       0.00061661203 0.019287502 -0.031966187 -0.032229863
0001b0 76 72 76 3c ae 0e d6 bc 83 f9 f8 3c 6f 34 9b 3b
       0.015041938 -0.026130047 0.030392414 0.004736475
0001c0 c1 79 69 bc 65 07 ef bc fb 2e d5 bc 04 92 f6 3c
       -0.01425022 -0.02917833 -0.026023379 0.030098923
0001d0 88 5b 85 bc 34 d2 1a bd e0 0f 9c bc 1a 0e a8 bc
       -0.016278997 -0.03779812 -0.019050539 -0.020514537
0001e0 24 ec 68 bc 76 74 c2 bc 84 f4 fa ba ad 66 d4 3b
       -0.014216457 -0.023737174 -0.0019146358 0.0064819665
0001f0 93 37 10 3d 4e 1b 83 3c 88 8a 03 bb a1 a5 e2 3c
       0.03520925 0.01600423 -0.0020071585 0.027666869
000200 10 22 56 3c 41 d9 d9 3c 6e c2 8e bc 4f ea a0 3b
       0.013069645 0.026592853 -0.017426696 0.0049107443
000210 7b 31 97 bc 66 9d c8 bc a2 4c 27 bd 41 64 1f 3c
       -0.018456211 -0.024489116 -0.040844567 0.009728492
000220 63 79 24 bd f4 be ca bc 6d 70 03 3d 56 f5 24 3c
       -0.040154826 -0.024749257 0.03208964 0.010068258
000230 ed 96 2a 3c 18 c6 53 3c d5 00 8a 3b 5c 9a 6a 3b
       0.01041196 0.012925647 0.004211525 0.0035797572
000240 1a a1 f7 bc 3b 34 d5 bb 6a 71 a1 3a ac d2 ac bc
       -0.030228186 -0.0065064705 0.0012317125 -0.02109655
000250 cd 6c 1a 3d 21 ca 06 3c 15 31 0a bc ef 0b e3 bb
       0.037701417 0.008226902 -0.008434554 -0.006928913
000260 ec cb 32 bc 99 b7 cf 3b f6 77 97 bb ab 65 fc b9
       -0.010912877 0.006339025 -0.0046224548 -0.00048140934
000270 4a e6 29 bc a2 6c a1 bc df 2e 1e bd c4 91 2c bd
       -0.010369847 -0.01970512 -0.03861892 -0.0421312
000280 b1 b3 8a 3c ee a4 2e bd 75 6b 62 3a 0d d6 cd bc
       0.016931387 -0.042637758 0.0008637228 -0.025126481
000290 3a 9f 28 bd e7 49 bf bc 52 d9 71 3b 08 3b 9b bb
       -0.041167475 -0.02335067 0.0036903215 -0.0047372617
0002a0 8d 2f 57 bb 94 40 c3 bc 82 d8 ad 3c 85 61 87 bb
       -0.003283474 -0.023834504 0.021221403 -0.0041314983
0002b0 70 a4 f0 3c ca cd 7c bc cd 93 f5 3b f2 f4 8f 3b
       0.029375285 -0.015429923 0.007494426 0.0043932134
0002c0 45 fd f0 bc ea b6 7c 3b 46 22 e7 bc c8 58 b3 3c
       -0.029417643 0.0038561174 -0.028214585 0.02189292
0002d0 7b d1 f0 bc 71 4e e1 bc 31 f9 01 3c 77 95 f8 3c
       -0.029396763 -0.027503224 0.007932947 0.030344708
0002e0 f7 47 2e bb c8 67 ed 3b 94 09 f3 3c c1 0e 9c bc
       -0.0026593187 0.0072450377 0.029667653 -0.019050004
0002f0 ce ed ae 3c f5 59 4a bc 56 ef 51 bc df a6 d1 bc
       0.021353628 -0.012350549 -0.01281341 -0.025592266
000300 8b c3 1e bd db d7 6e 3c 97 d3 a8 bb 8a 9a 1d bd
       -0.038760703 0.014577831 -0.0051521766 -0.038477458
000310 9b 40 b0 bc 83 6c 9a 3c df 6d f0 3c a3 30 05 bc
       -0.021515181 0.01885057 0.029349266 -0.008129272
000320 9a a8 fa ba ce b8 f9 bc 30 dd c6 bc 5a c3 d3 3c
       -0.0019123734 -0.03048363 -0.024275392 0.025849987
000330 5d 5d 8a bc b6 d9 34 3c fa 03 0a bc 16 0b 89 3c
       -0.016890222 0.011038234 -0.0084238 0.016728919
000340 40 a8 b3 bc 1c e7 3d 3d 0e 26 86 38 5d 02 19 3d
       -0.021930814 0.04636298 6.396706e-05 0.03735577
000350 b1 18 90 3b 8b c5 48 3b b2 cb a5 3b 73 43 a3 3c
       0.0043974747 0.0030635323 0.0050596828 0.019929623
000360 aa 10 83 3c 85 1e 13 3a 2b 3f 11 bb 2a f0 1c 3c
       0.015999157 0.0005612153 -0.0022162895 0.009578744
000370 9c 48 bd 3c b6 6a 2a 3c 51 f3 25 3c 1a 4f 48 bb
       0.023105912 0.010401418 0.010128812 -0.0030564726
000380 c8 cb 97 3c 29 2d 09 bd 42 f5 36 3c ee b0 43 bc
       0.018529788 -0.033490334 0.011166872 -0.011944039
000390 ba bb dd bc 2d 41 e6 3c a8 80 60 bc 85 de bd bc
       -0.027067054 0.02810725 -0.013702549 -0.023177395
0003a0 e7 88 f4 bc bb 41 8b bb a5 6c 89 bc bb a5 17 3d
       -0.029850436 -0.004249779 -0.016775439 0.037023287
0003b0 42 0c e0 bb 89 e6 33 3d 7d f2 0c 3d 41 8c f8 3c
       -0.0068373987 0.043921027 0.034410942 0.030340316
0003c0 b6 8e 2f 3c b4 25 8f 3c c2 d7 ec 3c 1a 6f c1 3c
       0.010715177 0.017474033 0.028911475 0.023612548
0003d0 81 33 85 bc d0 63 5f 3c c0 95 1d bd 07 a2 7b 3c
       -0.01625991 0.013634637 -0.03847289 0.015358455
0003e0 88 58 3c 3b d7 21 9a 3c a0 f4 00 3d e2 81 54 3c
       0.0028739292 0.018814964 0.031483293 0.01297042
0003f0 36 37 7a 3c a4 37 93 3b 70 b7 9c bc 5d 13 15 3c
       0.015271952 0.004492717 -0.019130439 0.009098855

0.bias f4 [128]
000000 33 6c 11 3b 1b fd 1d 3d 29 30 10 3d 3f 52 75 bc
       0.0022189736 0.03857146 0.03520218 -0.014973222
000010 82 34 e9 bc 55 63 f2 bb 48 a4 05 bd 76 d4 06 bd
       -0.02846742 -0.007397095 -0.032627374 -0.032917462
000020 2a 4d ee 3c e9 52 ae bc 7b 1a e2 3b b1 ea 1b bb
       0.029089529 -0.021279769 0.0069001294 -0.002379101
000030 0e 6c 0b bc 2b bc 85 bc 12 21 04 3d ca e8 ee bc
       -0.008509649 -0.016325077 0.0322581 -0.029163737
000040 b7 52 83 bc af fc 19 bc 0f 82 85 3c 20 9f 55 3b
       -0.016030652 -0.009398623 0.016297368 0.0032596067
000050 9d fe 00 bb 0d 71 13 3d 15 1f cc 3c e6 18 eb ba
       -0.0019683011 0.035996486 0.024917165 -0.0017936497
000060 54 83 b5 bb 3a bc 72 3c 65 93 bc 3c 02 78 2b bc
       -0.005539337 0.0148153845 0.023019502 -0.010465624
000070 13 15 4b 3c 7e 0b 2b 3d 9b de 1b 3d 65 1f b4 bc
       0.012395161 0.041759007 0.03805409 -0.021987626
000080 56 b0 f1 bc 98 06 7a 3b 82 da c0 bc a0 dc b4 bb
       -0.029503029 0.0038150903 -0.023541693 -0.0055194646
000090 17 51 8a 3c 1c 0e 63 3c 37 dd e6 bc 19 4e 79 bc
       0.01688437 0.013858344 -0.028181655 -0.015216374
0000a0 3d 57 f1 3c 2e bf 0f bd 25 52 ed ba 55 5e 6c bc
       0.029460544 -0.035094433 -0.0018106146 -0.014426787
0000b0 09 a6 47 3b e2 dd 9f bc 34 0d 96 3b b2 da f3 3c
       0.0030463955 -0.019514982 0.0045792107 0.029767368
0000c0 9b ad eb 3c 95 be bb bc 30 b8 2c 3c e3 5d 62 bc
       0.028769305 -0.022918025 0.010541961 -0.01381633
0000d0 34 8d ee bc 61 ad 43 bc d1 b2 a7 3c d8 89 1e bc
       -0.029120065 -0.011943192 0.020471008 -0.009676419
0000e0 fc 97 bd bc e8 e7 ec bc 87 ff b0 3c 03 4a d5 3c
       -0.02314376 -0.028919175 0.02160622 0.026036268
0000f0 ec 67 7a bc 80 b0 90 3b 97 6b 44 bc 9d 39 c5 3c
       -0.015283566 0.0044155717 -0.011988542 0.024075324
000100 eb d8 90 3c 12 73 22 3c 09 22 ec bc 35 b4 c1 bb
       0.01768156 0.00991513 -0.028824823 -0.005911375
000110 79 c7 da bc 24 5a 09 3d f0 f2 b1 3c 96 45 20 3d
       -0.026706444 0.03353323 0.021722287 0.039128862
000120 c0 bf e0 bc b5 e5 01 bb 97 c9 fe 3c dd 40 94 bb
       -0.027435184 -0.0019820754 0.031101985 -0.004524334
000130 88 e6 8b 3c 19 64 ee 3c da 08 e0 bc 20 ae fa 3c
       0.0170777 0.029100465 -0.02734797 0.030600607
000140 f0 a1 c6 3c 3d a7 bf 3c ed 0b 04 bc 0c 2f c0 3c
       0.02424714 0.023395175 -0.008059484 0.023459934
000150 ee 78 09 3d c8 72 72 bc d5 c2 ac 3c 91 4e 01 bc
       0.033562593 -0.014797874 0.021088997 -0.007892267
000160 5d 5d d9 3b b4 35 92 bc 55 e9 ea 3c b4 b4 e8 3c
       0.006633444 -0.017847873 0.028675715 0.028406478
000170 11 64 c0 bc dd 57 ed bc b1 ff 49 bc b2 c2 85 3c
       -0.023485215 -0.02897256 -0.012329028 0.01632819
000180 a3 86 ab 3c 31 5e 97 3c a5 7d f2 bc 6d 79 1d 3d
       0.020938223 0.018477531 -0.029600928 0.03844588
000190 30 72 10 3c b0 75 4c 3c 02 cc c3 3b 77 86 59 bc
       0.008816287 0.012479231 0.0059752474 -0.013276688
0001a0 e0 ea f8 bc fc 8e 9b b9 3d ea 1a 3d 40 20 57 3b
       -0.030385435 -0.00029670435 0.037821043 0.003282562
0001b0 bf 72 c9 b9 47 33 aa bb 15 35 3c 3b 11 ba 4c 3b
       -0.000384232 -0.005194101 0.0028718163 0.0031238834
0001c0 e3 ae 01 3d 57 fd 9a 3b f8 e4 36 3c 36 92 e2 bb
       0.031660926 0.0047299075 0.011162989 -0.0069144024
0001d0 e3 ff b1 3c 9b 61 0c 3d ff 88 de 3c e2 6f 05 3d
       0.021728462 0.03427277 0.027164934 0.032577403
0001e0 7c 0f 07 3d e7 32 90 bc 7b 06 d6 ba 41 ee 81 bc
       0.03297375 -0.017602397 -0.0016328836 -0.015860679
0001f0 8a 1a da bc 24 55 c7 bc 16 3b d8 3c a5 2c 0a bb
       -0.026623983 -0.02433259 0.026395362 -0.002108374

2.weight f4 [64, 128]
000000 73 f4 9d bc a6 dc aa 3d 08 34 b7 b9 fe e2 49 bd
       -0.019281602 0.083428666 -0.00034943246 -0.049288742
000010 c1 69 e8 3c 71 7f cb 3b a1 bb 9a 3d 8f f1 95 3d
       0.02837074 0.0062102606 0.075553186 0.07321464
000020 0f a3 2a bd 47 de 0f 3d 6a f0 c2 bc b8 b2 3e bd
       -0.04165941 0.03512409 -0.023796279 -0.04655716
000030 48 a9 ec bb b7 05 b1 3b 27 d7 a2 bd b1 46 8b 3c
       -0.0072223283 0.0054022926 -0.07951193 0.017001482
000040 1c 38 aa bd 09 4f ca 3b d5 e8 30 bc 8e 25 b4 bb
       -0.08311483 0.0061739725 -0.010797699 -0.005497641
000050 6e 4b 3c 3d 03 ed 8b bb 5e 53 92 bd 8d 36 6a bd
       0.045970373 -0.0042701974 -0.07144807 -0.05718093
000060 f4 90 3f bd 43 6d 9e bd db 94 2f 3d 77 cb a4 bd
       -0.046769097 -0.07735684 0.04286657 -0.0804662
000070 a1 27 8d 3d 3b 78 97 bd c0 38 4a bc 1c 04 4d bb
       0.06892324 -0.07395979 -0.012342632 -0.0031282967
000080 6e aa 53 bd 20 35 8c bd c0 3b bc bc d5 15 b6 3c
       -0.051676206 -0.0684607 -0.02297771 0.022227207
000090 be 28 94 3c 3e 4f aa bb f3 0a 73 bc d5 63 10 3d
       0.018085834 -0.0051974347 -0.0148341535 0.035251457
0000a0 17 7d 9f bc 53 a4 73 3d f0 37 82 3d 6e f2 82 3d
       -0.019468827 0.059482884 0.063583255 0.06393896
0000b0 2b 55 4b bd 35 21 79 3d 70 4f ac 3d 71 16 74 bc
       -0.04964177 0.060822684 0.08413589 -0.014897929
0000c0 7f 90 1f 3c 3f 73 9c bd 26 58 00 bd cb 80 af 3d
       0.00973904 -0.07639169 -0.031334065 0.08569487
0000d0 ee 15 28 3d be 89 aa bd 29 a3 dc 3c 08 4f ac bc
       0.04103654 -0.083270535 0.02693327 -0.021033779
0000e0 96 85 54 3d bb 02 37 bd 79 c9 03 3c e7 e8 ac bd
       0.05188521 -0.04468034 0.00804364 -0.0844286
0000f0 0c d1 6e 3d 3a 4a 8d bd b0 30 63 bd 60 d9 4a 3b
       0.05830483 -0.06898923 -0.055466354 0.003095232
000100 06 fc a0 3c 27 96 68 3d f6 a4 72 3d df dd 9f 3d
       0.019651424 0.05678382 0.05923935 0.078059904
000110 f7 4c 85 3d 47 55 a8 bd 82 87 e1 bb 66 0f 7e bd
       0.065088205 -0.0821939 -0.006882609 -0.062026404
000120 2d d4 a8 3d 12 14 61 3d 0e 19 a4 bd b8 bd ac bd
       0.08243594 0.05495078 -0.08012591 -0.084346235
000130 dc 30 a2 bd cf 08 8d bd 14 30 f0 3c 93 04 2b 3d
       -0.079194754 -0.06886446 0.0293198 0.04175241
000140 9f 6a 06 bd bd 1c c5 bc 88 05 c3 bc e2 f4 0f bd
       -0.032816526 -0.024061555 -0.023806348 -0.035145648
000150 83 c4 6c bc b7 27 e5 bc b4 3a ab 3c c6 8d 09 bd
       -0.014451149 -0.02797304 0.020902015 -0.03358247
000160 0d f7 37 3c ae 0f 94 3d 42 4f 8d 3d 38 ce 52 bc
       0.011228335 0.07229553 0.06899883 -0.012866549
000170 0e be 37 3c e5 1b 74 3d 33 0e e0 3c e2 12 80 b7
       0.011214746 0.059596915 0.02735052 -1.5267582e-05
000180 5d ff a4 bc 69 04 24 3d 83 47 57 3c 79 b1 90 3d
       -0.020141298 0.04004327 0.013139608 0.070651
000190 7b 35 10 bd a2 77 88 bb 66 44 23 3c c1 6c 51 bc
       -0.035207253 -0.004164652 0.009965038 -0.012782277
0001a0 7a 10 99 3d 8d e5 72 bd 1e 3d 9a bd 50 59 20 bd
       0.07473846 -0.059300948 -0.075311884 -0.039147675
0001b0 e1 c2 a8 bd 66 60 71 3c 35 10 7d 3d 09 e3 95 bc
       -0.08240295 0.014732456 0.061783034 -0.018296735
0001c0 a1 1a 3c bc 1a 12 8e bd 5a c5 af 3d d3 d3 7a bd
       -0.011480958 -0.06937046 0.08582564 -0.061237168
0001d0 0c 28 3c bd 72 10 a7 bc 3a 46 99 bd ae 02 36 3d
       -0.04593663 -0.020393584 -0.07484098 0.04443615
0001e0 64 7e 5f 39 98 e7 84 3d 1e eb 07 3a db de a9 3d
       0.00021314021 0.064894855 0.00051848765 0.082944594
0001f0 85 d8 b0 3d 07 29 ed 3c e6 30 a9 bd 15 36 27 3d
       0.08635048 0.028950227 -0.0826128 0.04082306
000200 30 5e 97 bd 69 f1 79 3d 74 da 1a 3d 3d 5f a9 bd
       -0.07391012 0.061021242 0.03780599 -0.082701184
000210 a2 21 ab 3c 79 7a 78 bd cc da 06 3d 91 68 18 bd
       0.02089006 -0.060663674 0.032923505 -0.037209097
000220 16 6f 63 3c 0a 50 06 3d 0c 5d 9b bd 9a 4b 8e bd
       0.013881465 0.032791175 -0.07586107 -0.069480136
000230 68 90 9e bc 0e 72 97 bd f4 3a da bb 5b c3 8e 3d
       -0.019355968 -0.07394801 -0.00665986 0.06970855
000240 64 30 1c bd f7 6d a9 bd 0f 59 a9 bc c4 4e 20 bd
       -0.038132086 -0.08272927 -0.02067235 -0.039137617
000250 17 06 7d 3b 36 8a 01 bd 92 95 9a 3d 89 d9 86 3d
       0.0038608366 -0.03162595 0.075480595 0.0658446
000260 8b 5e 98 bd 9f 8a 0e bd 28 9e 35 bd 75 2a 1e bd
       -0.07439908 -0.034800168 -0.044340283 -0.03861471
000270 d3 0c 8b bd 27 ce 2e 3d 0a 1a fa 3c c6 b4 fb bb
       -0.067895554 0.04267707 0.030529995 -0.007681462
000280 50 b4 58 3d 1e 08 85 3d 46 d0 9a 3d 43 e9 00 bd
       0.052906334 0.06495689 0.07559256 -0.031472456
000290 b2 05 1d bd f5 ce 9b bc 5d 2a a4 3d 30 59 a4 3d
       -0.03833551 -0.019019583 0.08015893 0.08024824
0002a0 4a 8f 88 3d 3e d1 fa 3b 69 59 a8 bd 54 9c d8 3c
       0.06667955 0.007654338 -0.08220179 0.02644173
0002b0 d1 22 05 bd b9 bc 31 bc 9d 41 6f 3d 5a 62 62 bd
       -0.032503907 -0.010848218 0.058412183 -0.055269577
0002c0 8c ef 8f 3d cc 00 00 3d 66 f5 9c bd 0a f3 7d 3d
       0.07028112 0.03125076 -0.076639935 0.06199936
0002d0 4e 15 02 bd 6e f3 42 3c e7 d5 8c bc a2 b7 86 bd
       -0.0317586 0.0118988585 -0.01719184 -0.06577994
0002e0 9c 7d 84 bc ef d2 09 bd f6 eb 18 3b ca 02 47 bd
       -0.016173176 -0.033648428 0.0023334003 -0.048586644
0002f0 eb 0d 00 3d 25 11 61 bc 9d 0b a5 3d 55 1a ac bd
       0.031263273 -0.013736998 0.08058856 -0.0840346
000300 25 ba c3 bc 86 37 a7 bd 52 04 98 3c 6d cb 73 bd
       -0.023892472 -0.08164887 0.018556748 -0.059520174
000310 a2 34 93 3d c5 92 68 bd 9d 0c ff bc d7 e2 a6 3d
       0.07187773 -0.056780595 -0.031133944 0.08148735
000320 9a c9 8f 3d c3 0d 3c 3d af d6 5a bd ea 0d 4e 3c
       0.07020874 0.04591156 -0.053427394 0.01257656
000330 01 43 76 3d f7 c4 c1 3c 78 40 f3 bc fa 84 82 bd
       0.060122494 0.02365349 -0.029693827 -0.063730195
000340 61 00 55 3d 67 39 97 3d a1 cd c7 bc a5 8f 92 3d
       0.052002314 0.073839955 -0.024390044 0.07156304
000350 10 3f a2 bc 36 2d 5e bd 3d a9 0a 3d 84 97 18 3d
       -0.019805461 -0.054242335 0.033852804 0.03725387
000360 86 91 86 bd ad 50 b2 bd 7c 8f 8b 3c c5 59 78 bd
       -0.06570725 -0.08706794 0.017036192 -0.060632486
000370 4c cd 95 bd 9c 67 b2 3d b8 42 86 bd 3e 26 3a bd
       -0.07314548 0.08711168 -0.06555694 -0.045446627
000380 93 12 b0 bd c0 26 30 bd fe d8 6b bd 16 5a f4 3c
       -0.08597293 -0.043005705 -0.057579987 0.029828113
000390 18 f1 ff 3c 3c 11 92 3d f1 2b 4e bd 77 e8 86 3d
       0.031242892 0.071321934 -0.050334875 0.06587308
0003a0 40 91 51 bd 7f 5f fa 39 eb 89 6d bc e2 4f 2a bc
       -0.05116391 0.00047754866 -0.014498214 -0.010395022
0003b0 d5 94 d2 bc aa 29 b8 3c a8 10 4a 3d c2 68 8b 3a
       -0.025705734 0.022480804 0.04933229 0.0010636079
0003c0 52 c7 93 bd 03 f9 8c 3d 0a 2d 92 bd f5 09 81 3d
       -0.07215752 0.06883433 -0.07137497 0.06300727
0003d0 a0 b0 73 3d c2 c6 ce bb 9a 94 ac bc ca df 55 3d
       0.059494615 -0.006310315 -0.021066952 0.052215375
0003e0 25 d1 81 bd 2c a9 d2 bb 25 42 85 3d ce 35 22 3d
       -0.06338719 -0.0064288583 0.06506757 0.039602093
0003f0 b4 e9 96 bd 68 c3 b0 3b 30 4a b4 bc 7b 42 83 bd
       -0.07368794 0.005394388 -0.022008032 -0.064091645

2.bias f4 [64]
000000 1e f3 7e bd 6a a6 4a bd db 09 cd 3c 9c 3b 44 bd
       -0.062243573 -0.04947511 0.025029114 -0.04790841
000010 6e b7 d4 ba a8 57 55 bc af 62 81 3d 28 9a 88 bd
       -0.0016228983 -0.013021387 0.063176505 -0.06670028
000020 8d 9d 82 bc 24 78 0c bd 8c bc 97 3d 42 3e ef 3c
       -0.015944267 -0.034294263 0.07409009 0.029204492
000030 13 15 96 bd cf 62 8c bd 43 07 6e bd 76 26 1a 3d
       -0.07328238 -0.06854784 -0.058112394 0.037634335
000040 a7 3f 40 bd bf 9f b4 3d d6 d4 8f 3d a7 10 31 3d
       -0.046935704 0.08819532 0.07023017 0.04322877
000050 b7 3c 5b bd 35 1e 28 3b 5e 9b 2d bd d1 2b ae bd
       -0.0535247 0.002565277 -0.042384498 -0.08504451
000060 ee ef a9 3c 7c 05 da bc 8a 42 b2 3d 67 c1 83 3d
       0.02074429 -0.026613943 0.087040976 0.06433373
000070 aa d1 c1 bc 8d c1 6d bc 09 cb f8 3c 2c f2 59 bc
       -0.023659546 -0.014511478 0.030370252 -0.013302367
000080 b4 bd d8 3c 47 b9 80 3d 77 8b dd bb 5b 9b 62 3d
       0.026457645 0.06285339 -0.0067610103 0.05532394
000090 68 3a 11 bd 85 38 80 bd b2 67 91 bd 7f 83 a0 bd
       -0.03545609 -0.0626078 -0.070998564 -0.07837581
0000a0 a2 e4 53 bd 20 b1 1d 3c 4b 3a 89 3d bd 33 c5 3c
       -0.051731713 0.009624749 0.067005716 0.024072522
0000b0 ab 81 ef bc 90 74 ec bc bf bb c5 3d 94 db 84 bd
       -0.029236635 -0.028864175 0.0965495 -0.06487194
0000c0 76 b2 a3 bd 75 4e dd bc 58 d5 89 3c 76 c1 03 bd
       -0.07993023 -0.02701495 0.016825363 -0.03216692
0000d0 5e 1a 1e 3c 44 2a 04 3c fd c1 90 bd 02 fe 26 3b
       0.009649841 0.008066718 -0.0706825 0.002548099
0000e0 36 46 07 bd 36 5f 3d bd 3c ae 67 bd 6f 4a d9 bc
       -0.033025943 -0.04623338 -0.056562647 -0.02652475
0000f0 e0 0c 77 3d 71 d9 45 bd 5d 79 b7 3d db 0c ab bd
       0.060315013 -0.04830307 0.08958695 -0.08352061

4.weight f4 [10, 64]
000000 38 06 a5 3d 97 4a 87 3c b6 06 b4 bd d3 3d b3 3c
       0.08057827 0.01651506 -0.087903425 0.021880066
000010 e9 45 21 3e 47 a9 d1 3d 3e 85 f0 bd 55 c2 33 be
       0.15749325 0.10237365 -0.11744164 -0.175546
000020 bd 3d fd bd 01 17 5e 3e 45 65 2e 3e 00 ee ee 3d
       -0.12365291 0.21688463 0.17030819 0.11666489
000030 e7 c6 a1 be ca 86 06 3d 83 4f 13 ba f5 15 ac bd
       -0.31597063 0.03284339 -0.0005619453 -0.084026255
000040 b2 24 16 3e 7c 32 e9 bd 50 d0 ef 3d b9 05 0e be
       0.14662436 -0.11386582 0.11709654 -0.1386937
000050 fe 00 a9 bd 57 18 22 3e c8 33 5c bd d8 9d 95 3d
       -0.08252142 0.15829597 -0.05376032 0.07305497
000060 01 3f 06 be 3b eb 4f 3e 17 40 c9 bc 5f b8 4b be
       -0.13109972 0.20304577 -0.024566693 -0.1989455
000070 4d 14 a5 3d 0e 47 b0 3d be 45 7d be 59 d4 1e 3e
       0.08060513 0.086073026 -0.24733636 0.15510692
000080 e2 d5 aa 3e 29 41 48 3c 6d 72 af 3e a6 47 54 be
       0.33366305 0.012222567 0.34266987 -0.20730457
000090 9d 7e 10 3e 85 c3 5d bd c0 33 3a 3d 15 d8 b1 bd
       0.14110799 -0.05414154 0.04545951 -0.086837925
0000a0 b4 d2 94 bd 70 66 1e bd 67 ef 9a 3d e1 00 74 3e
       -0.07266751 -0.03867191 0.075651936 0.2382846
0000b0 69 3a 58 be 44 e4 3b 3d 10 da a1 3e 50 3a 4b be
       -0.21116032 0.045871988 0.3161168 -0.19846463
0000c0 ce 53 a9 bc 5e de 08 bc 46 76 f4 bc 84 e0 30 bd
       -0.020669844 -0.008353798 -0.029841553 -0.043182865
0000d0 a1 b8 1a 3d e5 7f b6 3d 60 ef 16 be 48 68 27 bd
       0.037773732 0.08911113 -0.14739752 -0.040870935
0000e0 61 89 83 3d f9 17 00 bc 1d 50 1d 3e a9 24 8e bd
       0.06422687 -0.0078182155 0.15362592 -0.06940586
0000f0 ec 93 a5 be 5c 9b 31 be cb d5 e5 3d 66 16 df bd
       -0.32339418 -0.17344421 0.112224184 -0.10892944
000100 88 0d f9 3d a2 71 ce 3d e4 3f 5f 3e a5 a5 6a be
       0.12160784 0.100802675 0.21801716 -0.22914751
000110 b7 c7 a4 bc b8 fd 88 bc f4 4b 01 3e 40 ee e1 3c
       -0.020114763 -0.016722545 0.1262663 0.027579427
000120 d8 73 d7 3d fc 3b 09 be 18 da 7e be 21 02 8b 3e
       0.10520142 -0.13401788 -0.24887884 0.27150062
000130 6d cd d6 bd 40 90 89 be 9c 50 36 3d 8a 87 2a bd
       -0.104884006 -0.26867867 0.04451047 -0.041633166
000140 ee 19 23 be c0 44 30 3e 94 0b 80 be 58 83 8c be
       -0.1592786 0.17213726 -0.25008833 -0.27443957
000150 47 16 11 bc 55 55 36 be de d1 e0 3d 7a 24 ec 3c
       -0.008855409 -0.17805989 0.10977529 0.028825987
000160 bc 5d 8d 3e a2 01 67 be cb 51 8e 3d cb c4 b7 3d
       0.27610576 -0.22559217 0.069491945 0.08973082
000170 43 99 fb bd d5 aa ac 3c 1b 57 9e 3e 7f 32 0c 3e
       -0.12285092 0.021077553 0.3092583 0.13691138
000180 c2 f8 d6 be e2 f5 22 be 84 b7 23 be 49 2f f7 bd
       -0.41986662 -0.1591411 -0.15987974 -0.12069566
000190 8d 59 e3 bd 7f 14 93 bc 87 77 82 3d 6d 33 9c 3d
       -0.11101065 -0.01795411 0.06370454 0.07626996
0001a0 e0 97 f4 3d 20 b8 7f bc b5 05 ed bd d3 f7 60 3d
       0.1194303 -0.015607864 -0.11573354 0.054923844
0001b0 9d 25 e4 3d 08 54 77 bd 51 b6 a8 bd d7 ab 85 be
       0.11139987 -0.060382873 -0.08237899 -0.26107666
0001c0 48 1f 4a 3e ea f2 3b 3e 73 88 26 3e 39 d9 46 3e
       0.19738495 0.18354383 0.16262989 0.19418801
0001d0 08 fa 92 3d d4 dd dd bd 4d d1 64 bd f1 ad ba 3d
       0.07176596 -0.10833326 -0.055863667 0.09115208
0001e0 f9 9d 85 be 4f 9c f5 3d f1 57 58 be a3 76 ab 3e
       -0.26097086 0.11992704 -0.21127297 0.3348895
0001f0 28 57 b3 3e 2a c1 4c 3e 09 bb 08 3c eb 2b 0b bd
       0.35027432 0.19995561 0.008345374 -0.03397743
000200 4e 35 f1 3d 1f 87 b0 3d e2 b4 03 3e 76 df 86 3d
       0.11777745 0.08619522 0.1286197 0.065855905
000210 7e 74 eb 3d 3a cd a6 3d 38 56 29 be 60 67 c3 3e
       0.114968285 0.081446126 -0.16536796 0.38164806
000220 0d 08 81 3e 40 55 3d be a2 f2 90 3e db 92 28 3d
       0.25201455 -0.18489552 0.28310114 0.041155677
000230 ae f1 43 be 09 4c be bd 67 c5 fd bd 65 fd 96 bd
       -0.19135162 -0.09291846 -0.12391167 -0.0737255
000240 0f 42 f3 bb 3d 46 98 bd 22 e2 e4 ba 3c 81 1c be
       -0.0074236463 -0.07435272 -0.0017462412 -0.15283674
000250 b9 3f 49 3d fb 13 c5 3e cc 5f 68 3e 60 3f 44 be
       0.049133036 0.38491806 0.22692794 -0.191648
000260 c4 c8 c9 bc 41 e2 66 be 53 ee 5b 3d 5b 7e 4c bd
       -0.024631865 -0.22547247 0.05369408 -0.04992519
000270 5e 0f 44 3e 5d ef 61 39 a2 7d 12 3d bc a0 a2 3c
       0.19146487 0.00021546842 0.035764344 0.019852035
000280 77 97 a3 3e bd 8c e1 bd ed 81 38 be e0 6a ba 3c
       0.31951496 -0.11013172 -0.18018313 0.02275604
000290 8e d8 22 3e fb 7d 92 bd 74 2b c0 bc 2f 93 9d 3e
       0.15902922 -0.07152935 -0.02345822 0.30776355
0002a0 6c fb 94 3d 50 bd 86 3c 4e a3 77 be 24 df 12 3e
       0.072745174 0.016447693 -0.2418339 0.14342934
0002b0 2d a5 f2 3d f3 d2 01 bb dd ff 9d be 8e 28 04 3e
       0.11847911 -0.0019809573 -0.3085927 0.12906095
0002c0 d8 cb 29 be ac 77 4f bc 24 9e 66 3e b2 6c d9 bd
       -0.16581666 -0.012662809 0.22521263 -0.10616435
0002d0 c9 c7 09 be 74 f5 a0 3d 52 da 5f 3e d4 9b 4e bd
       -0.13455118 0.078593165 0.21860626 -0.050441578
0002e0 6f d6 15 be 4e e2 81 3c 61 fe a3 bc e9 cf e8 3d
       -0.14632581 0.01585498 -0.020018758 0.11367781
0002f0 bf c2 80 bd b5 04 80 be 79 f4 84 be c7 c5 81 3d
       -0.06287145 -0.2500359 -0.25967768 0.06336551
000300 82 49 91 bc 57 4c eb bd a8 6c 31 3e 62 e0 c4 3c
       -0.017735247 -0.1148917 0.17326605 0.024032775
000310 eb 9e 8e 3e 78 7c 78 3d fb 7d 9d bd 7f 16 93 3d
       0.2785562 0.060665578 -0.076900445 0.07182025
000320 07 42 96 be 1f fb 36 3e 22 0a 3b be d9 00 41 bd
       -0.2934725 0.17869233 -0.18265584 -0.04711995
000330 12 bf 0c bd 26 35 4f be 63 c7 c0 3d a2 20 32 3c
       -0.034361906 -0.20235118 0.0941303 0.010872038
000340 17 a7 52 be 54 36 6a 3e 0e 92 48 be 0f 9b 2b 3e
       -0.20571552 0.22872287 -0.19586965 0.16758369
000350 9a e8 6e bb ab 79 17 bd 51 fb 75 3e 84 ce 62 3d
       -0.003645456 -0.036981266 0.24021651 0.05537273
000360 88 b3 93 be 40 e2 43 be fa b8 fc 3c 6a 35 d3 bd
       -0.2884791 -0.19129276 0.030849922 -0.10312922
000370 88 33 92 ba ba b2 50 3e ea 2c 66 bc c9 05 12 be
       -0.0011154274 0.20380679 -0.014048794 -0.1426002
000380 2a 0a 88 3d 5c 13 69 3e 96 ea 6f 3e 2c 90 83 bd
       0.06642564 0.22761291 0.23429331 -0.06423983
000390 7b ec 08 3e 43 3f 88 3e a9 71 48 3e 6a 61 28 3d
       0.1337146 0.26610765 0.19574608 0.041108526
0003a0 37 a6 07 bd d8 d1 8f bd 42 ed 57 3e e0 a6 3e 3e
       -0.0331175 -0.070224464 0.210866 0.18618345
0003b0 1d 1e 9d be be 81 a3 3d d2 cf 8e be c0 47 1b 3d
       -0.30687037 0.07983731 -0.2789293 0.037910223
0003c0 34 62 1b be 44 90 b1 3e 23 86 d7 bd f6 1f f8 3d
       -0.1517418 0.34680378 -0.105236314 0.12115471
0003d0 42 70 19 3e b7 3b 86 3d 99 91 39 be 65 1c a9 bc
       0.14984229 0.065543585 -0.18121947 -0.020643422
0003e0 12 22 53 bd c4 b2 9d 3d e1 97 15 bd b7 50 7f 3e
       -0.051546164 0.077001125 -0.036521796 0.24933134
0003f0 73 f0 92 3d ed 76 46 be dd 0e 66 bd 1c 40 e1 3d
       0.07174768 -0.19381304 -0.05616652 0.10998556

4.bias f4 [10]
000000 2e 4c a0 3c 82 7f ca 3c 28 79 22 bd 51 de fa bb
       0.019567575 0.024719004 -0.039666325 -0.0076558967
000010 09 1e 29 bc 98 7c a8 3d 35 d2 81 bd 38 ca 33 bd
       -0.010322102 0.08226889 -0.06338922 -0.043894023
000020 af 40 57 bc aa 88 d1 bd
       -0.01313798 -0.10231145
