models/digit_classifier_model.pth (torch, 440414 bytes, 6 tensors)

0.weight f4 [128, 784]
000000 08 7d 62 3c 29 90 1c bd 4c cb bf b8 ce 1d f9 bb
       0.013823755 -0.03822342 -9.145457e-05 -0.00760243
000010 53 d0 66 bc f9 89 79 bc c0 bb cd bc e7 da f7 bb
       -0.014087754 -0.015230649 -0.02511394 -0.007563937
000020 56 17 8f ba c4 1d 8a bc fd e0 cd 3c a4 bf ae 3c
       -0.0010916989 -0.016859896 0.025131697 0.021331616
000030 50 ce 0e bd f7 a6 00 bd bc 8c 89 bc ff 61 28 bc
       -0.034864724 -0.03140923 -0.01679074 -0.01027727
000040 89 1d ae 3b a5 d5 f0 bb 4a d7 28 bc 27 dc 2a bd
       0.0053135795 -0.007349687 -0.010305235 -0.04171386
000050 e5 2d 43 3b 98 f6 8b b9 4a 68 ac 3b c2 98 09 bd
       0.0029781994 -0.00026695873 0.0052614557 -0.033592947
000060 26 c7 dd 3c 73 4b 34 bb f8 7a 29 3c 7c aa 5e 3c
       0.0270725 -0.0027510792 0.010344259 0.013590451
000070 a9 de b5 3b fd c9 92 bc 78 cb 9b bc 3a ee 14 bc
       0.005550225 -0.017918581 -0.01901792 -0.009090001
000080 44 d9 8c bb 75 f8 ed bc a6 99 19 bd 82 4b 09 bc
       -0.004298361 -0.029049138 -0.037500046 -0.008379819
000090 41 73 16 bd 66 fd 1a bd 2f c5 98 bc 7c fc 1f bc
       -0.03673101 -0.037839316 -0.018648712 -0.009764787
0000a0 48 88 bf 3b 60 20 04 bd 3c d3 f5 bb 80 0e ff bb
       0.0058451034 -0.032257438 -0.0075019877 -0.007783711
0000b0 0a e8 dd 3c 5d cc 9c bc db e3 1a bd 1d f6 bc ba
       0.027088184 -0.019140417 -0.037814956 -0.0014416609
0000c0 12 c0 08 bd de 66 b0 bc 91 85 1b bd 88 f5 70 bb
       -0.033386298 -0.021533426 -0.037969176 -0.0036767442
0000d0 7a a7 8e 3c 7c 80 a9 3c 60 db 37 3c 18 eb 5d bc
       0.017413843 0.020691149 0.011221737 -0.01354482
0000e0 0b 68 16 3b 79 89 17 bd a8 11 dd 3c 5d 43 f7 bc
       0.0022950198 -0.03699634 0.026985958 -0.030183489
0000f0 70 ce d5 bc da 70 17 bd 30 0b be 3b 24 be e0 bc
       -0.026099414 -0.036972858 0.0057996735 -0.027434416
000100 7f db 03 bd 88 da 04 bc 86 43 a0 3c 7a 7f 2a 3c
       -0.03219175 -0.008108743 0.019563448 0.010406369
000110 20 77 09 3d 3b 48 07 3d 54 50 43 3c 35 90 15 bc
       0.033560872 0.03302787 0.011921007 -0.00912862
000120 c2 b8 84 b9 72 bc f7 bc 41 7c 8a 3b 96 0c 50 bc
       -0.00025314657 -0.030241225 0.004226238 -0.012698313
000130 02 b7 f3 bc a7 86 91 39 f2 42 04 3c 19 f8 c1 bb
       -0.02975035 0.0002775688 0.008072602 -0.005919468
000140 07 ad 21 3c ef df 25 bd d2 11 f5 bc 22 66 d7 bc
       0.009867913 -0.040496763 -0.029915724 -0.026293818
000150 ba 92 2c 3c 29 99 23 bd b4 1c af 3c ea 59 56 3b
       0.010533029 -0.039940987 0.021375991 0.0032707402
000160 a4 27 4f 3c 75 11 85 3c da 70 a2 bb 40 43 da 3c
       0.012643728 0.016243676 -0.0049573006 0.026643395
000170 34 32 02 3d ba a2 96 3b 16 c3 20 3d 96 35 ab 3c
       0.03178616 0.0045970352 0.03924855 0.020899575
000180 dc e7 22 3d 53 4f 76 3b d5 86 a9 bc 50 a9 7b 3c
       0.0397719 0.0037583902 -0.020694176 0.015360191
000190 14 c3 9e ba 85 1f d9 3c 8b 78 02 bd 5a 00 b0 3c
       -0.0012112581 0.026504287 -0.03185324 0.021484543
0001a0 e8 cb 5d 3c 68 4b 6d 3c b2 6b b0 3a 3a 23 fb 3b
       0.013537385 0.01448331 0.001345983 0.0076641114
0001b0 29 51 53 3c 2b e4 99 3c af 3d 1e bd 66 7f a5 3b
       0.012897768 0.018785557 -0.038633045 0.0050505875
0001c0 9e e8 e0 3c 99 b7 f5 bc f0 f4 5f bc e2 4a 93 bc
       0.02745467 -0.029994773 -0.0136692375 -0.017980043
0001d0 8d be bf 3c f6 72 f0 bb be 01 20 3c 08 54 e1 bc
       0.023406291 -0.007337923 0.00976604 -0.02750589
0001e0 a1 41 bd 3b f8 4c 81 3c d7 4b a1 3c 52 29 43 bc
       0.005775646 0.015783772 0.019689484 -0.011911707
0001f0 eb 13 5a 3d 10 13 0d 3c d6 4d bc 3c cd c3 32 bc
       0.05324165 0.008610502 0.022986334 -0.01091094
000200 aa 87 3a bc 99 bd 88 bc 0f 1a cd 3c 21 9d f5 bc
       -0.011384884 -0.01669197 0.02503684 -0.029982151
000210 09 7d d0 bc 31 ef 2c bd d1 42 1d bd 66 75 db bc
       -0.025450246 -0.0422203 -0.0383938 -0.026789378
000220 c0 d8 01 bd 44 c0 a2 bc e0 2e d9 bc 68 e3 23 3c
       -0.03170085 -0.01986707 -0.02651161 0.010002948
000230 e3 10 55 3c 15 0c 7a 3b db c9 3b bc fd b9 21 bd
       0.013004514 0.0038154174 -0.0114617 -0.039484013
000240 5a 8b b5 3c e0 5b 21 b9 a1 e4 f5 3c fa 29 ca bc
       0.022161175 -0.00015388383 0.030016245 -0.02467822
000250 a3 ce 48 3c 87 d8 22 3d 4e f9 77 3c 46 36 14 3d
       0.012256297 0.039757278 0.015135122 0.03618457
000260 93 41 28 3d 69 14 23 3d d2 0d fe ba df c8 dc 3c
       0.04107816 0.039814387 -0.0019382781 0.026951252
000270 d7 d7 b6 3c 05 dc c7 3c 19 84 24 3b 14 e8 12 3c
       0.022319717 0.024396906 0.002510315 0.008966465
000280 84 a2 16 bd 42 63 30 bd 93 ea 32 bd 4a 9f 6e 3c
       -0.03677608 -0.04306341 -0.04368074 0.014564345
000290 4d 4c 54 bc c7 5e 9a 3b 91 ab 04 3a 4c e0 cc bb
       -0.012957645 0.0047110054 0.0005060966 -0.006252324
0002a0 69 d6 b2 ba a1 73 9c bc e5 03 a4 bc 6e d9 00 bd
       -0.0013644221 -0.019098105 -0.020021388 -0.031457357
0002b0 bd ed 17 bd 6c 57 c7 bc 47 4f e4 bc 6c a2 75 bc
       -0.03709196 -0.024333678 -0.027869834 -0.014992338
0002c0 cf 39 e3 bc fe 42 d1 3c 35 94 0c 3d ae 91 0a 3d
       -0.027737526 0.02554464 0.03432103 0.033830337
0002d0 5d c8 06 3d 34 dc 0a bc c7 8a 3f 3d 81 e8 82 3c
       0.032905925 -0.008475352 0.046763208 0.015980007
0002e0 f2 dd 55 3c a7 d4 8b 3a b5 fd 56 3c d1 32 cb 3b
       0.013053404 0.0010668234 0.013122012 0.006201126
0002f0 c2 a4 da bb 01 af 11 bc 1d 33 8b bc 60 27 35 bc
       -0.0066724727 -0.008891822 -0.016992146 -0.011056751
000300 15 83 08 bd 8d db 86 bb f1 f4 80 3c 43 ee ba 3c
       -0.033328135 -0.004115528 0.015741797 0.02281869
000310 bb 41 f7 bb 9a a8 09 bd 38 76 4a bb a8 69 0a bd
       -0.0075456775 -0.033608057 -0.0030893218 -0.033792168
000320 06 86 8d 3c 5a 0c 41 3c e3 04 0a bd 9b 16 08 3a
       0.017275821 0.01178273 -0.033696067 0.0005191357
000330 9a b4 01 3d d7 62 02 bd 33 fa ca 3b 46 13 cc 3c
       0.031666376 -0.031832542 0.006194377 0.024911534
000340 bc f6 04 3c 2f 90 80 3d 53 56 09 3d c6 a9 02 3d
       0.008115467 0.06277501 0.03352959 0.03190019
000350 70 9f 7e 3d d4 24 32 3d 39 91 13 bc 88 9d d2 bc
       0.06216377 0.043492153 -0.009006792 -0.025709882
000360 1b e4 91 bc 92 c2 9d 3b f1 c8 72 3c 9e ae 33 bb
       -0.017808964 0.0048144544 0.014818416 -0.0027417312
000370 37 fd 26 bd 0c b2 60 bc 1d 4f eb bc 4f f1 3b bc
       -0.04076883 -0.013714325 -0.028724248 -0.011471107
000380 32 6d 48 3c 85 7d bb 3c 7a f3 cb 3b 6d 59 96 3b
       0.012233065 0.022887 0.006224093 0.004588297
000390 95 40 29 3b 2c 45 fd bb fe 9e ea 3c 1c b1 f6 3c
       0.0025825847 -0.007729193 0.028640267 0.03011375
0003a0 bb 61 86 3a d8 30 69 bc 69 5e a6 bc d1 44 b9 bc
       0.0010252515 -0.014232837 -0.02030869 -0.022615822
0003b0 6a ca 80 3d 11 04 8a 3c ea 4c c0 3d 03 81 ae 3d
       0.062886074 0.016847642 0.0938967 0.08520701
0003c0 cf 5f a3 3c b9 75 8c bc 29 36 33 bb 66 3c a1 bb
       0.019943146 -0.017145978 -0.0027345514 -0.00492053
0003d0 8c 3d ea bc 2c bf fc bb 34 ce 8c bc 5b 4d 15 bd
       -0.028593801 -0.007713219 -0.017188169 -0.036450725
0003e0 64 81 80 3c 0f 30 19 3c bd 9a 0a 3b 34 02 e6 bc
       0.015686698 0.009349837 0.002114936 -0.028077222
0003f0 0f f0 8a 3c f1 db 12 bc d0 be f4 bc 5e ed d9 bc
       0.016960172 -0.008963571 -0.029876143 -0.026602443

0.bias f4 [128]
000000 a9 3d 02 3c 26 04 4b 3c c4 99 05 bd 62 98 1f 3d
       0.007949271 0.012391126 -0.032617345 0.038963683
000010 81 82 db bc 25 22 31 3c a3 77 7b 3c fd 94 cf bc
       -0.026795628 0.010811363 0.015348348 -0.025339598
000020 63 65 10 3d 7f b2 f5 3c ea 6a 99 3b ee 33 ab 3c
       0.03525294 0.02999234 0.0046819346 0.020898785
000030 aa e1 8c bc d3 08 9c bc d2 f0 52 bc f4 b7 e2 3b
       -0.017197449 -0.019047176 -0.012874799 0.0069189016
000040 d8 de d6 3b 54 91 87 3c e2 1c e1 3b 89 bb 64 bc
       0.0065573268 0.01654879 0.006869898 -0.0139607275
000050 84 a4 84 bb 79 b9 f1 bb 22 48 9d bc 78 81 d4 3c
       -0.004047932 -0.0073768464 -0.019199435 0.025940642
000060 1f e0 ee 3c 5c 8b 12 bd bc b8 be 3c 84 3f 38 3c
       0.029159604 -0.035777435 0.023281448 0.011245612
000070 ed 71 db bb 0b 9c 9a 3c ee d7 23 bc 95 53 0d 3d
       -0.0066969306 0.018873235 -0.010000212 0.03450354
000080 71 bb 25 3b 25 86 10 b8 8e 8f 35 39 df b2 46 3c
       0.0025288726 -3.4457207e-05 0.00017314983 0.012127607
000090 79 c7 09 bd 1e 46 b1 3c fb 8e a3 3b ca f8 8a bc
       -0.033637498 0.02163988 0.00499141 -0.016964335
0000a0 ef b0 15 3d 04 67 57 3c 10 8b 2e bb d6 f9 db bc
       0.03654569 0.013147119 -0.002663318 -0.02685253
0000b0 bd 2a 84 bc 7c 9c 85 3c 0a 67 af bc d6 52 f0 ba
       -0.01613366 0.01630997 -0.021411438 -0.0018335234
0000c0 d0 75 c7 bc b2 76 b4 bb 78 16 b1 3b 04 f8 b7 3c
       -0.02434817 -0.0055073136 0.00540429 0.02245713
0000d0 da 45 2a bc 13 f9 8e bc 3f b9 1f 3c 80 18 e0 39
       -0.0103926305 -0.017452752 0.009748756 0.00042742863
0000e0 fb f0 f5 3c f8 14 4b 3b 31 81 59 bb 12 be 47 3c
       0.030022135 0.003098784 -0.0033188576 0.012191312
0000f0 a6 d3 18 3d 7d ae 83 bc c2 39 bb 3c cd 46 b8 3c
       0.03731122 -0.016074413 0.02285469 0.022494698
000100 4a 90 58 bc 55 ea 92 bc b5 02 c9 bb 7d 0f 0a 3d
       -0.013217995 -0.017934004 -0.006134356 0.033706177
000110 aa e8 fe 3c a4 c7 9f 3c 25 57 b4 bc 86 7c c2 3c
       0.031116802 0.019504376 -0.02201421 0.023741018
000120 6c 93 e5 3c 74 49 d7 bb 62 7f 6c bc f8 b1 63 bc
       0.028024398 -0.0065700356 -0.014434667 -0.0138974115
000130 0d 13 09 bc e6 aa 23 bc 1e 7b 96 ba 9b 37 e4 bc
       -0.0083663585 -0.009989476 -0.0011480784 -0.027858546
000140 01 14 dd bc 98 02 27 bc 98 d1 ab 3b 64 aa e5 3c
       -0.026987078 -0.0101934895 0.0052434914 0.02803535
000150 a9 08 97 3c 3b 59 18 ba fd c9 01 3c 88 ba 0a 3d
       0.018436747 -0.0005811636 0.007921693 0.033869296
000160 ab 52 24 bc 18 a4 de bc 59 db b9 3b 3e c8 27 3d
       -0.010029475 -0.027177855 0.0056719 0.04096245
000170 b4 80 01 bd 20 c1 bf 3c ba 33 21 3c eb 9c 26 3a
       -0.03161688 0.023407519 0.009838993 0.000635578
000180 14 b6 6c 3c c0 95 07 bd 75 8e 11 3d 97 44 f0 3b
       0.014447708 -0.033101797 0.03553625 0.0073323953
000190 2a e2 3b 3c 96 e7 02 3d a2 df 5f 3c e9 dc 56 bc
       0.011467496 0.03195914 0.013664158 -0.0131141925
0001a0 2f fc bc 3c 03 bb c1 3c b7 27 05 bc a0 01 c0 3c
       0.02306947 0.023648744 -0.008127145 0.023438275
0001b0 22 75 79 bc 1a f6 ec bb 5e 2e 2c 3d a6 06 dc bc
       -0.015225681 -0.007231486 0.042036407 -0.026858639
0001c0 b9 32 4d 3c 7e ca 7e bc ae cb d3 3c 24 0f 7b ba
       0.0125243 -0.015551208 0.025853958 -0.0009577146
0001d0 bc 66 99 37 2f ab 81 bb ac df 53 bc 27 fe b2 bc
       1.828686e-05 -0.0039571743 -0.0129317455 -0.021849705
0001e0 fd ca da bc 90 72 95 bc 65 a5 7f bc c4 50 3e bc
       -0.02670812 -0.018243104 -0.015603398 -0.011615936
0001f0 3a 47 f8 39 4e 0b 2e 3d c4 e7 75 3c 67 6d a3 bc
       0.00047355314 0.04249125 0.0150088705 -0.019949628

2.weight f4 [64, 128]
000000 b8 1e 45 bd 7c c7 ab bd c0 7b 98 3d 0e b2 51 3d
       -0.048125 -0.08387658 0.074454784 0.051195197
000010 54 09 a3 3d 26 57 10 bd 6a b2 d0 bd 00 b3 30 bd
       0.079607636 -0.03523936 -0.1019028 -0.043139458
000020 9e dc 7e 3d 8d c4 b0 bd 9e 1b 56 bd 07 a9 86 3d
       0.062222116 -0.08631239 -0.05227243 0.06575208
000030 b4 c1 3f bc 91 28 11 bd ca 47 61 3d 91 0a 10 bd
       -0.011703897 -0.035439078 0.055000104 -0.035166327
000040 90 20 bc 3c c5 ff 29 3d 7c 12 fa 3d 99 02 0a bd
       0.022964746 0.041503686 0.12210557 -0.033693884
000050 a4 1f 1c 3d 91 5d 91 bd 97 d7 a2 3c 41 6d ac 3a
       0.038116112 -0.070979245 0.019878192 0.0013155119
000060 64 1f ec 3c 28 20 35 3d ab c8 13 bd de ba e8 3d
       0.028823562 0.04422012 -0.036080044 0.11363767
000070 62 28 3d bd 50 64 52 bc 55 af 3d bc 59 2a c1 3b
       -0.04618109 -0.012841299 -0.011577447 0.005894941
000080 36 a2 01 3b d5 9c 8f 3c cb 7f 93 3a f9 b8 f8 3c
       0.0019780523 0.017530838 0.0011253295 0.03036164
000090 3f 18 2a 3d d7 22 89 3d b6 cc 91 3d bf 73 e9 bd
       0.04152703 0.06696098 0.07119124 -0.1139903
0000a0 d2 98 7f bd 33 5a e6 3c bd 20 ad 3c d3 32 d1 bc
       -0.0624016 0.028119182 0.021133775 -0.02553693
0000b0 f5 ed a0 bd c6 2f 28 3e f1 91 79 bd d0 4a 61 bd
       -0.07857887 0.16424474 -0.060930196 -0.055002987
0000c0 95 d0 8a 3d fd 5a 90 bd 97 e3 8e bd f5 af 45 bc
       0.06778065 -0.07048605 -0.06977003 -0.012065877
0000d0 41 fa ca 3d a3 5e 5b bb 94 6f a7 3b 8a 65 33 3d
       0.099110134 -0.0033473156 0.0051097367 0.043798007
0000e0 19 2e 1b 3d cc b2 f5 bc d8 76 2d bd 42 11 95 3d
       0.03788576 -0.029992484 -0.042349666 0.07278682
0000f0 04 fe 71 bc c9 2b 64 3c 0b d8 a5 bc c4 36 f6 bb
       -0.014770035 0.013926455 -0.020244619 -0.007513853
000100 52 86 65 bd 95 97 8a 3d ae 49 b7 3d d6 b8 da 3b
       -0.0560363 0.06767193 0.089496 0.006674866
000110 1f 62 cb 3d 8a fd 44 3d af bc 69 3c b0 40 1a 3d
       0.099308245 0.048093356 0.014266177 0.037659347
000120 7c 17 ec bc 6a 6b 8a 3d b9 66 af bd ff 70 4d bc
       -0.028819792 0.06758769 -0.08564515 -0.012539147
000130 98 b8 c5 bb 10 b4 ed 3c 50 d8 05 3e 63 79 b4 bd
       -0.006033968 0.029016525 0.13070798 -0.08812215
000140 47 72 d3 3c 49 0c 48 bd dc ab 8f 3d bc 62 9a bd
       0.025811328 -0.04883984 0.070152014 -0.07538363
000150 0c 05 db 3d d5 2e 91 bd 88 5c b1 3c 0f 43 b0 bc
       0.10694322 -0.070890106 0.021650568 -0.021516351
000160 6a eb f0 3d 24 7e 94 bd 13 af f4 3c 32 ed c6 bd
       0.11763652 -0.07250622 0.029868638 -0.0971321
000170 6e 12 68 3d 71 9a 39 3d 4d 27 aa bb cc 1a bd bd
       0.0566582 0.045313302 -0.0051926733 -0.09233627
000180 ff 09 90 3d e3 68 26 3d b3 ef a3 3d 01 d5 a8 bd
       0.070331566 0.04062737 0.080047034 -0.08243752
000190 67 62 f9 3d 67 ab 55 3d c2 20 69 bd dd db 2d 3e
       0.12176972 0.052165415 -0.056916006 0.16978402
0001a0 1d e1 06 3e a1 51 98 bd 9f 8e b3 3d 4a a5 5e bd
       0.13171811 -0.074374445 0.08767437 -0.05435685
0001b0 45 ca 20 3c 81 63 1a 3d 38 ea 03 bd 4d 07 96 bd
       0.00981385 0.03769255 -0.03220579 -0.07325611
0001c0 29 7d 52 3d f1 85 9c 3d 36 f2 d7 3d d5 3f 74 3d
       0.051388893 0.07642735 0.10544245 0.059631187
0001d0 ed 15 36 bc 24 3a 38 bc 36 03 c1 3d 81 c8 1e bd
       -0.011113626 -0.011244331 0.094244406 -0.038765434
0001e0 2d e0 0b 3e 8e 0e e1 3c c4 27 27 3d 55 7d f2 3c
       0.13659735 0.02747276 0.040809408 0.029600779
0001f0 2c 1e 66 3d ed af 93 bc e7 b0 d3 bd 69 2b bf 3d
       0.056181118 -0.018028224 -0.10336476 0.09334452
000200 2e 5c 3c 3d 88 e4 67 3d 0e 57 8c bc e3 2b c7 3c
       0.045986347 0.05661443 -0.017131355 0.024312919
000210 cf 20 92 bc 4d 3c 14 bd 6e ef 58 bd 0f 35 80 3d
       -0.01783791 -0.03619032 -0.052962713 0.0626012
000220 2d bb 02 3d 11 bb 86 bd a1 24 89 3c cf 37 45 3d
       0.031916786 -0.06578649 0.016741099 0.048148926
000230 18 cb ba 3d 8f 71 df bc 78 5b 0a 3e ab d6 80 bd
       0.09120768 -0.027275829 0.13511455 -0.06290945
000240 44 7e 69 3d 99 80 10 bd 77 6e 02 bd 6a 90 0d bd
       0.057005182 -0.03527889 -0.03184363 -0.034561552
000250 09 d1 7e bd 2b 91 5c bd fe af 01 3e 1a 20 69 bd
       -0.06221107 -0.05384938 0.12664792 -0.05691538
000260 9c 5c 14 bd 55 db 11 bc 2f a5 cf bd 08 39 9e bd
       -0.03622113 -0.0089023905 -0.10138928 -0.077257216
000270 9b df a8 bd 84 e9 da bc 72 b6 23 bd a3 bd ba 3d
       -0.08245774 -0.026722677 -0.039968915 0.091182016
000280 cd f2 5c 3d ff f9 b6 3d 58 84 96 3d 80 8b 0b 3d
       0.05394249 0.08934402 0.07349461 0.034068584
000290 1f c1 1e bc d7 79 fe 3d 86 40 df 3c a5 68 e3 bc
       -0.009689598 0.12425583 0.027252447 -0.02775986
0002a0 4e c9 9c bd 4d 34 aa 3b 56 a2 e7 3d ba 60 e9 bd
       -0.07655583 0.005194223 0.1131026 -0.11395402
0002b0 93 8e 27 3d bf 69 a9 3d e6 ed 1c bd ec 39 8a 3c
       0.040907454 0.082721226 -0.038312815 0.016873322
0002c0 1a 34 c2 3d 6c c1 69 3c 99 94 24 3d 17 04 1b bb
       0.09482594 0.014267307 0.040180776 -0.002365356
0002d0 ef 7b 49 bd e7 2b a0 bc 7e b0 20 bd de cc 0e 3d
       -0.049190458 -0.019552184 -0.039230816 0.034863345
0002e0 e6 d7 01 be af c6 a0 3d 30 d5 d4 3d 7d cd f8 3c
       -0.12680015 0.07850396 0.10392225 0.030371422
0002f0 e1 00 cd 3c bd d6 4e bd c6 b9 e3 3c c8 87 85 bc
       0.025024833 -0.05049776 0.027798545 -0.016300097
000300 6a de a1 bd cf f4 d1 bb 4d 7f a6 bd 55 b3 86 3d
       -0.0790375 -0.0064073573 -0.081297494 0.065771736
000310 6a e1 17 bd 9e b2 0f bc 8f 43 08 bd 3b 33 05 bc
       -0.037080206 -0.008770613 -0.033267554 -0.00812989
000320 1a 1c 0c bb c3 cf 28 bd e1 8d 1d 3d 08 6b 2e 3d
       -0.0021379055 -0.041213762 0.038465384 0.04258254
000330 58 c5 f1 bb c2 cd 71 3d ab b9 a8 3d 63 bc 47 3d
       -0.0073782615 0.059034117 0.08238538 0.048763644
000340 8f a7 ca 3d bf ce b8 bd b5 f8 0f bd 68 c8 a7 bd
       0.098952405 -0.09023809 -0.035149295 -0.08192521
000350 8a 22 b1 bc 2d f6 ba 3c 37 9c 91 bd 59 a2 e6 bd
       -0.021622915 0.022822464 -0.07109874 -0.11261434
000360 12 ff 78 bd f5 c5 a4 bd 9d 3d 8b bd 4f aa 9d 3d
       -0.06079013 -0.0804557 -0.06798861 0.076984994
000370 36 48 36 bd de 7e ac 3d 7c 90 80 bc df f1 e5 3a
       -0.04450246 0.084226355 -0.015693896 0.0017543397
000380 e5 b1 3d 3d 5d a6 65 3d 58 13 0d 3e b2 b0 f5 3c
       0.04631223 0.05606686 0.1377691 0.029991481
000390 4d 26 0c 3e aa 8d 4f bd b9 5c fd 3c dd 2b 13 3e
       0.13686486 -0.05067221 0.030928003 0.14372201
0003a0 df 95 3d bc 7a 96 d2 bd 6d 98 8c bd c9 e4 1a be
       -0.011571377 -0.102826074 -0.068650104 -0.15126337
0003b0 9d de 0b 3c a4 ab 21 3d 32 c3 78 ba 7b 30 c4 bc
       0.008536962 0.03947033 -0.00094895356 -0.023948899
0003c0 b8 1d ab bd 4d 31 9e 3c d5 65 48 3d b2 a9 2b bd
       -0.08355278 0.019310618 0.04892524 -0.04190988
0003d0 9f 6a cf bc 5f cc 11 bd 06 92 bc 3d 2e 4d 4b bc
       -0.025319396 -0.035595294 0.09207539 -0.012408538
0003e0 f8 38 c6 3d ab 4d 55 bc 14 1b ab bd 25 6f 26 3d
       0.09678835 -0.013019006 -0.08354774 0.04063334
0003f0 c0 b9 ad 3d 3f 7b df bc 0f 89 0c 3d 20 88 dd 3c
       0.084826946 -0.027280448 0.034310397 0.027042449

2.bias f4 [64]
000000 7b d8 9d 3d 3a fb 8f 3d cd 18 ab 3d 4b 6c 06 bd
       0.07707306 0.070303395 0.0835434 -0.03281812
000010 6f 0b 34 bd e2 f0 8f 3d 6d bd b0 bd 71 f2 a7 3d
       -0.043956216 0.070283666 -0.0862988 0.08200539
000020 fa 97 86 3d 02 c3 a8 3d d1 88 12 bd b3 36 0e 3d
       0.06571956 0.0824032 -0.03577501 0.034720134
000030 a2 4e a6 bd 87 a9 87 3c 9a 7f ac 3d 69 31 91 bd
       -0.08120467 0.01656033 0.084227756 -0.07089502
000040 5b 85 92 bd d6 e6 f9 bb db fc 53 3d 54 df 8d 3d
       -0.07154342 -0.0076263947 0.051754814 0.06927362
000050 6d 15 1e bd b8 74 b0 bd 61 90 ab 3c aa 6d 01 bb
       -0.038594652 -0.08616012 0.020942869 -0.0019749203
000060 fd ab 12 3d 17 f4 31 3c 84 b8 9f bd 22 76 f8 bb
       0.035808552 0.010861418 -0.077988654 -0.007582442
000070 1f 11 54 3d 01 1f 0c 3c 60 6d 9e 3d 69 3d 2b bb
       0.05177414 0.008552314 0.077357054 -0.0026129133
000080 da f3 f2 bc ed 57 70 3d 3d dd 41 3d c5 e1 01 3d
       -0.029657293 0.058677603 0.04733013 0.03170945
000090 b6 d1 7f bd 14 af a6 3d 95 ad 26 3d ef 32 f0 3c
       -0.062455855 0.08138862 0.040692884 0.029321162
0000a0 22 64 ae bc 19 d4 a9 3d 71 78 84 3c fa 90 02 3d
       -0.021287981 0.082924075 0.016170712 0.03187654
0000b0 35 96 8e 3d 6a 9e 82 bc eb 8d 79 bb 90 48 3a bd
       0.069622435 -0.015944678 -0.0038078974 -0.045479357
0000c0 5c d4 81 3d a7 c2 33 3d 4c 3c 84 bd 9c 0d ca bc
       0.063393325 0.043886807 -0.06456813 -0.024664693
0000d0 d5 6a a6 bd cf 77 7b 3d 96 6f 13 bd 40 67 fe bc
       -0.08125845 0.061393555 -0.03599509 -0.031055093
0000e0 5c f4 51 3d 08 48 d5 3c be 76 a2 bd de 3f 15 bd
       0.05125843 0.026035324 -0.079328045 -0.03643786
0000f0 ce a3 24 3d 8d 7e a7 3c 74 c6 18 bd 6c 79 14 3c
       0.04019528 0.020446086 -0.037298635 0.009062152

4.weight f4 [10, 64]
000000 84 75 06 be b5 5c 1a be e7 af 9a bd 90 06 4f bd
       -0.13130766 -0.15074427 -0.07553082 -0.050543368
000010 8d c4 3b be 93 55 06 be 24 e9 c3 bd 9c c2 17 3e
       -0.18336697 -0.13118581 -0.095659524 0.14820331
000020 a2 a5 9c be a9 09 93 bb 34 ed d2 bd 5b 93 bf bd
       -0.30595118 -0.0044872356 -0.10299149 -0.09354278
000030 fd a8 fd bd 36 28 01 be 1c 89 5c be 08 4e 8b be
       -0.123857476 -0.12612996 -0.21536678 -0.2720797
000040 b1 cf 38 be 61 79 24 bd b5 e5 0c bd 10 d8 8b bd
       -0.18047978 -0.04015482 -0.034398753 -0.0682832
000050 7a df 27 bb 66 29 ff bd f4 3d 3c be 8a 95 6e bd
       -0.002561538 -0.12459068 -0.18383008 -0.05824808
000060 8e 5f 6c bd c5 95 01 be 49 d5 8a bd f5 c0 da bd
       -0.057708316 -0.12654789 -0.06778962 -0.10681335
000070 4a d1 62 3e df b1 e6 bd e4 a0 fa 3d 8e 82 c7 3e
       0.2215015 -0.11264395 0.12237719 0.38966793
000080 16 c3 ae 3e b5 45 f6 bd da f8 e9 bd 0f fc 3d be
       0.34133214 -0.12025014 -0.11424418 -0.18553184
000090 d4 df 02 3e 16 a1 c0 3e 7c e9 30 be 33 e7 e0 bd
       0.12780696 0.376229 -0.17276567 -0.10981598
0000a0 c9 96 42 3e c7 58 26 bb 87 e0 a0 3d 1f ce 0e be
       0.19002832 -0.0025382505 0.07855325 -0.13945816
0000b0 65 9d 25 be 4f 15 33 be 5e 42 6a bd bf 98 84 be
       -0.16173322 -0.17488597 -0.0571922 -0.25897786
0000c0 e1 96 23 3e 7b 7f 83 bd 8d d4 43 bd ad 65 9a be
       0.15975524 -0.06420799 -0.047810126 -0.30155697
0000d0 09 dd 29 3d 85 47 41 3e 76 3b 26 be 87 97 39 3e
       0.04147056 0.18874939 -0.1623362 0.1812421
0000e0 8a 91 42 3e c1 10 56 3e 78 f2 eb 3d 17 08 ea bc
       0.19000831 0.20904829 0.115208566 -0.02856831
0000f0 af d5 88 3e a3 f7 29 3e b1 cf cf 3c 19 b3 ac 3d
       0.26725528 0.16598372 0.02536759 0.08432598
000100 43 8a 51 3e dd 89 99 3e f8 3a c7 3d 93 da 7c 3c
       0.20462899 0.29987994 0.09728044 0.0154329715
000110 4d 0b 3e be 3d 03 84 3d 48 5f e6 bd 29 60 a4 be
       -0.18558998 0.0644593 -0.11248642 -0.32104614
000120 94 71 52 3e 73 b9 29 be d4 0a 31 3e 8d db a7 3d
       0.20551139 -0.1657465 0.17289287 0.08196173
000130 86 96 fa bd de d2 90 bd ec 84 7d 3d d5 4a c4 3c
       -0.12235741 -0.0707147 0.061894342 0.023961464
000140 42 9d e6 3d ce 0d 2c bc f3 c9 77 3e 79 02 29 3e
       0.11260463 -0.010501338 0.24198131 0.1650485
000150 93 8f 51 3d 01 0f 5d bd 36 57 9c 3e 4f 11 9c 3c
       0.051162314 -0.053969387 0.30535287 0.019051222
000160 cb 4e 0c 3d 99 47 9a 3d 6f 06 b1 3c b9 42 02 bd
       0.03425483 0.075331874 0.021609513 -0.031801913
000170 6e cb 84 be 2e d6 92 bd 29 dc 96 3e 4e 73 b9 be
       -0.25936455 -0.07169758 0.29464844 -0.36220783
000180 1b b3 48 be f2 bb aa 3d 90 7a 8d 3e 64 a8 fc bd
       -0.19599573 0.08336629 0.2763257 -0.123368055
000190 de 98 3d be 30 92 d2 3d 9c 2f 92 3d fb b8 25 be
       -0.18515345 0.10281789 0.07137987 -0.16183846
0001a0 88 7d 02 bd bc 8a 19 bd ff de 49 be 3a 43 c7 bd
       -0.031857997 -0.037485823 -0.19713973 -0.09729619
0001b0 78 3f 6a 3e ae 38 43 bd b8 58 38 bd ee 40 44 bd
       0.22875774 -0.047661476 -0.045006484 -0.047913484
0001c0 c3 20 88 be 98 98 59 be c1 4f 7c 3b 4d 83 2d 3e
       -0.26587495 -0.21249616 0.0038499685 0.16944619
0001d0 de ae 92 3c 7b 65 7e be 3e 00 21 3e f8 54 29 bc
       0.017905649 -0.24843399 0.15722749 -0.0103352
0001e0 37 d4 17 3e c7 b7 7e be 09 07 dc bd 6a 69 2e bd
       0.14827047 -0.24874793 -0.10743529 -0.042581
0001f0 5f b9 84 be 9d 2c 4c be db dc 0e 3c 7c 36 ba bd
       -0.25922677 -0.19938894 0.008719648 -0.09092423
000200 32 ab 94 3e c4 bd 1e 3e 0e 0f c4 bc da 07 a4 3d
       0.29036862 0.15502077 -0.02393296 0.0800931
000210 c0 c2 5d bd c0 31 62 bd 7c 00 b6 bd 28 4f ef bd
       -0.054140806 -0.055223227 -0.08886811 -0.1168502
000220 01 fb cf bc 9b 23 6a be 83 9a ce bd 1c 93 9b be
       -0.025388243 -0.22865145 -0.100880645 -0.30385673
000230 73 9a c8 3d 62 56 8e 3e 07 91 9e 3e 43 30 1e 3e
       0.09795084 0.2780028 0.30970022 0.15448098
000240 f0 d1 41 be 1a 5d 97 3d 97 17 c4 bd 46 80 93 bb
       -0.18927741 0.073908046 -0.09574812 -0.0045013754
000250 7d 96 e3 bd 1b 18 96 3e 00 37 4c 3d f5 9c c9 3c
       -0.11112688 0.29315266 0.04985714 0.024610976
000260 40 6f fe 3c 02 db 6d 3d d4 07 2f 3e c3 70 e8 3d
       0.031058908 0.05807019 0.1709283 0.113496326
000270 e8 25 b4 3e c2 bc 45 3d 91 79 15 3e ef 80 c2 3e
       0.3518517 0.048275717 0.14597155 0.37988994
000280 ce dd 36 3e 50 f3 10 bb e2 93 57 be 05 b5 bf bd
       0.1785805 -0.0022117682 -0.21052507 -0.093606986
000290 84 bf 86 3d 94 a8 71 3d 9b 9d 00 be 11 a9 89 be
       0.065794975 0.05899866 -0.12560122 -0.268868
0002a0 c1 e0 1a be b1 f6 98 3c 81 22 8c bc 45 e1 05 3d
       -0.151248 0.01867232 -0.017106296 0.032685537
0002b0 bb ce 06 3e db 49 2a be f7 81 9f 3d 54 05 2e be
       0.13164799 -0.16629736 0.07788461 -0.1699422
0002c0 a3 1c 10 be 8a be b9 3d 86 26 c0 bd 54 c8 97 3e
       -0.14073424 0.090695456 -0.09382348 0.29645026
0002d0 1a c1 ef 3d df 6c af bd d6 4a 32 be e1 80 86 3c
       0.11706753 -0.085656874 -0.1741136 0.016418876
0002e0 57 ad 3d be c2 a9 35 be ff 57 77 bd cb 96 c8 3d
       -0.18523155 -0.17740539 -0.060386654 0.097943865
0002f0 cf 06 45 be 1c e8 d2 3d c2 a9 ad 3d 04 c5 06 be
       -0.19240879 0.102981776 0.08479644 -0.13161093
000300 4b 91 69 be 9d c9 ce 3d 85 3b 11 bd 6f c5 77 3d
       -0.22809331 0.100970484 -0.035457153 0.06049102
000310 d1 2e 88 be 9e eb 0d be 92 6b d8 3d 64 1b 04 bd
       -0.26598218 -0.13859412 0.105673924 -0.032252684
000320 54 52 38 be e3 da 00 3e 2f f7 41 be 24 9d bf bd
       -0.18000156 0.12583499 -0.1894195 -0.09356144
000330 f7 c6 f8 3d 04 11 6f 3e 58 d1 4a 3e fe bc 55 be
       0.121473245 0.23346335 0.19806421 -0.20872876
000340 f4 ca f7 bd c6 e4 dd bc 9c 50 8a bd 98 5d ce 3e
       -0.12099257 -0.027086627 -0.06753656 0.4030578
000350 6c a5 39 3c c2 0d 50 3d 9e 5c 58 be 00 3c a5 3d
       0.011330944 0.05079437 -0.2112908 0.08068085
000360 de 3a 70 bc 26 3e 85 bc f3 97 2d be 9a c6 90 bc
       -0.0146624725 -0.016264986 -0.16952495 -0.017672826
000370 fc 49 ab be 07 c8 2b 3c 53 0f a5 3e 15 6d 87 be
       -0.33454883 0.010484702 0.32238254 -0.2645041
000380 2b 0a 03 3e 21 ad 55 3d 29 7c 26 be e4 77 a9 3e
       0.12796848 0.05216706 -0.16258301 0.33099282
000390 57 8d da 3d a1 b6 50 be 6d 9b 91 3d f0 f6 0c be
       0.1067149 -0.20382167 0.07109723 -0.13766074
0003a0 a6 ee 3a be 7a c7 35 3c 42 ab 6a 3e c8 7e 91 3c
       -0.182551 0.011094922 0.22916892 0.01776065
0003b0 ca 44 38 bd c7 4f 34 3d 2a da 55 bd 8e d6 2b bc
       -0.044987477 0.044021394 -0.05221001 -0.010488166
0003c0 4e 6d 6c 3e 1e 7f 4c 3d 86 6d 5e 3c 52 c6 8a 3e
       0.23088571 0.049925916 0.013575917 0.2710443
0003d0 47 29 b0 bc 29 6e d6 bd ba 9f 31 3e 67 24 ff bd
       -0.021504058 -0.1047023 0.17346087 -0.12458115
0003e0 fa 0a 45 be e7 3c 87 be 59 90 c6 bb ee 8c b7 bd
       -0.19242468 -0.26413652 -0.006059688 -0.08962427
0003f0 2d 98 b7 3d f3 8f c7 3d 92 79 97 3d b6 80 f1 3d
       0.08964572 0.09744253 0.073962346 0.11792128

4.bias f4 [10]
000000 4a 44 d3 3c b4 db c0 bd c2 1c 04 3e 18 ac 9a bd
       0.025789399 -0.09416905 0.12901595 -0.075523555
000010 ca 1c 9e bd 2b 99 b4 bd 1e f4 cc bc 39 cc cd bd
       -0.07720335 -0.08818277 -0.025018748 -0.10048718
000020 3b c8 50 3d be fb 8c 3c
       0.050972205 0.017209884
