models/mpg_predictor_model.pth (torch, 4592 bytes, 3 tensors)

fc1.weight f4 [64, 7]
-0.11440866 -0.39510423 -0.25880453 -0.4232192 -0.609393 0.13988258 0.6290692 -0.57580745
-0.17435932 -0.052408565 -0.6691631 -0.19660658 0.5109131 0.39810845 -0.41391486 -0.6464439
-0.6515045 -0.19184121 -0.23312947 0.64727944 -0.058978118 0.111362696 0.073250875 0.08632479
0.19283284 -0.0900059 -0.5432181 -0.9658568 0.04894996 -0.027585471 -0.0013146023 -0.15952367
-0.6408286 -0.8489899 -0.7384928 -0.70643157 -0.48430204 -0.32061276 -0.44431493 0.34902474
0.32800934 0.49397594 -0.52694046 -0.45721042 -0.3225158 -0.63809943 -0.13711065 0.43135053
0.46590653 0.102230765 0.32326055 0.04346559 0.18685399 -0.6049271 -0.66634923 -0.41940987
-0.018465504 0.75487596 0.22612695 0.42995778 0.20446496 -0.12800366 -0.8768162 1.0885301
0.5588719 0.9939393 0.805265 -0.6436482 -0.4996097 -0.091425106 -0.32227266 0.05950054
0.2903028 -0.41910598 -0.4777039 -0.41855562 -0.4872989 0.23901019 0.0842776 0.04847056
0.46097827 -0.18408182 0.07435653 0.040222984 0.5111668 -0.09609939 0.18185475 0.0023662497
-0.12397489 -0.4939487 -0.7851023 -0.059819136 0.23387934 -0.10190524 0.30130142 0.4456857
0.8756667 -0.61863965 -0.54435694 -0.44914922 -0.39773458 -0.21632731 0.036262136 0.6898616
0.41074982 -0.74765414 -0.27125606 -0.6054082 -0.15196455 -0.059072774 0.015399652 0.38467434
-0.14728528 0.38731077 -0.103076406 -0.56720906 -0.59468675 -0.46464935 -0.12796208 -0.1398781
0.47424585 -0.06256274 0.16189958 -0.10606998 1.0737795 -0.35978696 -0.6212788 -0.23968387
-0.16820863 -0.026762566 0.40342447 0.4148199 0.47841617 -0.45133394 0.08473955 -0.017192326
-0.5334309 0.056906953 -1.1331801 0.22287723 0.3702687 -0.013104435 -0.53918976 0.24460909
-0.48456126 -0.760747 -0.84647316 -0.6989362 -0.51449025 -0.031911824 -0.29882285 0.1631617
0.026677258 0.27950305 -0.34581193 -0.5828583 -0.4238983 -0.56565875 -0.10703722 -0.24800368
0.49382594 0.20366338 -0.3589825 0.3716444 -0.29918104 -0.7588258 0.3572329 -0.45337346
-0.68750995 -0.46971196 -0.417375 -0.1994226 0.38268307 -0.15470678 0.622406 -0.63862985
-0.4273611 -0.6609208 -0.610723 0.1892393 0.6363473 0.052990172 -0.67036396 -0.53337127
-0.028928854 -0.019738993 0.11535334 0.6730687 0.606541 -0.517951 0.03267054 -0.5510937
-0.63722736 0.09170885 0.2925568 -0.31442833 -0.06546419 -0.3013647 -0.4132029 -0.040041033
-0.018268906 -0.99045116 0.20976625 -0.40846702 -0.12300218 -0.3966716 -0.07506017 -0.65561247
0.20848629 -0.115779996 -0.4619279 -0.64931774 -0.028358717 -0.24252166 0.4246041 0.2350997
-0.16923593 -0.69995314 -0.2943851 -0.44138888 -0.26198718 0.012288894 0.49698764 -0.014719426
0.43974513 -0.044465695 -0.04924665 0.0217251 -0.6966541 0.93166107 -0.61121637 -0.2619666
-0.099802434 0.096051134 -0.4227327 -0.82655555 0.30411643 0.5618186 -0.020100165 -0.6315905
-0.58521223 -0.15482424 0.10970172 0.33524483 0.58494747 -0.29336876 -0.1664921 -0.47054493
-0.29921606 -0.092084855 0.12630829 0.23382252 0.15435483 0.45434952 0.07434128 -0.17918532
00000000: 164f eabd 1a4b cabe 0782 84be 30b0 d8be
00000010: 2e01 1cbf 613d 0f3e ae0a 213f 1e68 13bf
00000020: 408b 32be 5daa 56bd 464e 2bbf 3c53 49be
00000030: 33cb 023f dfd4 cb3e a6ec d3be 597d 25bf
00000040: 00c9 26bf 0672 44be 7eb9 6ebe 1bb4 253f
00000050: 0a93 71bd 2012 e43d 8e04 963d 0dcb b03d
00000060: f975 453e 0355 b8bd 5710 0bbf 6442 77bf
00000070: c17f 483d edfa e1bc bc4e acba 2c5a 23be
00000080: 580d 24bf 6757 59bf dd0d 3dbf b3d8 34bf
00000090: 70f6 f7be 5b27 a4be 3f7d e3be 5fb3 b23e
000000a0: d7f0 a73e 6aea fc3e 92e5 06bf 7c17 eabe
000000b0: ca20 a5be 7c5a 23bf bc66 0cbe fad9 dc3e
000000c0: 4d8b ee3e 5d5e d13d 6882 a53e f908 323d
000000d0: a756 3f3e 81dc 1abf dd95 2abf e4bc d6be
000000e0: f844 97bc 8d3f 413f d38d 673e 6d23 dc3e
000000f0: 435f 513e 6413 03be 0777 60bf f454 8b3f
00000100: 3b12 0f3f ce72 7e3f d925 4e3f 21c6 24bf
00000110: d8cc ffbe 163d bbbd ec00 a5be d7b6 733d
00000120: 92a2 943e 0f95 d6be 9b95 f4be ec4c d6be
00000130: 3e7f f9be 16bf 743e bc99 ac3d 1189 463d
00000140: 5805 ec3e f27f 3cbe 3d48 983d dbc0 243d
00000150: d4db 023f c2cf c4bd 2238 3a3e 1513 1b3b
00000160: 8ce6 fdbd d8e6 fcbe 77fc 48bf e904 75bd
00000170: 117e 6f3e b2b3 d0bd 2e44 9a3e eb30 e43e
00000180: b12b 603f 2b5f 1ebf fa5a 0bbf e3f6 e5be
00000190: dea3 cbbe e884 5dbe 9b87 143d c59a 303f
000001a0: cd4d d23e 4366 3fbf 13e2 8abe 08fc 1abf
000001b0: 989c 1bbe 4bf6 71bd d24e 7c3c 09f4 c43e
000001c0: f4d1 16be 994d c63e b919 d3bd 9d34 11bf
000001d0: 643d 18bf 85e6 edbe 7e08 03be 343c 0fbe
000001e0: 5ad0 f23e e520 80bd 01c9 253e 383b d9bd
000001f0: 9b71 893f ff35 b8be 210c 1fbf b06f 75be
00000200: e23e 2cbe 2b3d dbbc a78d ce3e 4663 d43e
00000210: f7f2 f43e 3e15 e7be ee8b ad3d ecd6 8cbc
00000220: ed8e 08bf 4417 693d 0c0c 91bf ee39 643e
00000230: dc93 bd3e fcb3 56bc 5708 0abf ce7a 7a3e
00000240: 6a18 f8be 51c0 42bf 77b2 58bf 7ced 32bf
00000250: a2b5 03bf f9b5 02bd 4fff 98be dc13 273e
00000260: 448a da3c 061b 8f3e 430e b1be 3436 15bf
00000270: 3309 d9be 03cf 10bf 5436 dbbd adf4 7dbe
00000280: c1d6 fc3e 228d 503e 8ecc b7be 2d48 be3e
00000290: 422e 99be 6842 42bf 3be7 b63e 9120 e8be
000002a0: a700 30bf 167e f0be 2db2 d5be 7035 4cbe
000002b0: 09ef c33e 746b 1ebe 0056 1f3f 3f7d 23bf
000002c0: 13cf dabe 1b32 29bf 5858 1cbf f2c7 413e
000002d0: a8e7 223f 390c 593d f99c 2bbf 058b 08bf
000002e0: 34fc ecbc abb3 a1bc 5f3e ec3d 3b4e 2c3f
000002f0: 4546 1b3f 7098 04bf 8bd1 053d 7a14 0dbf
00000300: 5521 23bf d9d1 bb3d 01ca 953e c0fc a0be
00000310: 1712 86bd 794c 9abe 558f d3be 1102 24bd
00000320: aca8 95bc 358e 7dbf f7cc 563e 9722 d1be
00000330: 91e8 fbbd 8a18 cbbe 25b9 99bd 38d6 27bf
00000340: 6e7d 553e 101e edbd d081 ecbe b039 26bf
00000350: 8a50 e8bc 9957 78be b565 d93e fabd 703e
00000360: 2f4c 2dbe 2130 33bf a5b9 96be b9fd e1be
00000370: 2f23 86be 5b57 493c 2a75 fe3e bf29 71bc
00000380: 4626 e13e a921 36bd dbb6 49bd d6f8 b13c
00000390: ec57 32bf 5781 6e3f ad78 1cbf 7c20 86be
000003a0: 3865 ccbd 75b6 c43d 6c70 d8be 2599 53bf
000003b0: 26b5 9b3e 58d3 0f3f 1aa9 a4bc eaaf 21bf
000003c0: 78d0 15bf 3f8a 1ebe 4cab e03d 36a5 ab3e
000003d0: 1ebf 153f 6e34 96be e87c 2abe 44eb f0be
000003e0: d932 99be fc96 bcbd f656 013e 2c6f 6f3e
000003f0: 310f 1e3e 80a0 e83e 3e40 983d 5b7c 37be

fc1.bias f4 [64]
0.37598962 0.41924918 0.20770806 0.3779409 1.0273178 0.39028874 0.07795731 0.91327715
0.34979832 -0.78257316 0.6075217 -0.37633473 0.55736977 0.57919204 0.59138423 0.18810935
0.13572168 0.44827065 0.7973286 0.35272273 0.849263 0.5150131 0.7931458 0.57941645
0.8949696 0.37032926 0.36009383 0.571137 0.34895408 0.6093864 0.7314274 0.23583642
0.39955577 0.7355174 0.644509 0.62508005 0.67771494 0.47239017 0.8545178 0.5511368
0.4105591 0.7360309 0.71206594 0.7196046 -0.02366458 0.4968104 0.3439912 0.4124759
0.5116448 0.8170366 0.36379054 0.62070256 0.7914395 0.44260144 0.40559548 0.658138
0.4524676 0.64671046 0.3329451 0.29886132 0.2078742 0.40505943 0.6365516 -0.15498647
00000000: b681 c03e d4a7 d63e 6cb1 543e 7881 c13e
00000010: 267f 833f edd3 c73e 15a8 9f3d 88cc 693f
00000020: c418 b33e b756 48bf 8b86 1b3f f2ae c0be
00000030: c9af 0e3f ee45 143f f564 173f bd9f 403e
00000040: a0fa 0a3e bb83 e53e ba1d 4c3f 1398 b43e
00000050: 4d69 593f e6d7 033f 9a0b 4b3f a354 143f
00000060: ba1c 653f cc9b bd3e 385e b83e 0936 123f
00000070: 1caa b23e bf00 1c3f d33e 3b3f 1a7f 713e
00000080: 9392 cc3e de4a 3c3f 8bfe 243f 3f05 203f
00000090: ba7e 2d3f 20dd f13e aec1 5a3f 4d17 0d3f
000000a0: cd34 d23e 856c 3c3f f449 363f 0238 383f
000000b0: 39dc c1bc ef5d fe3e 9d1f b03e 0b30 d33e
000000c0: 27fb 023f 5029 513f c142 ba3e 5de6 1e3f
000000d0: c79b 4a3f a89c e23e 36aa cf3e bb7b 283f
000000e0: d5a9 e73e d18e 253f c877 aa3e 5a04 993e
000000f0: f9dc 543e f363 cf3e 0cf5 223f c6b4 1ebe

fc2.weight f4 [1, 64]
0.27218065 0.4602095 0.42961398 0.46340236 0.36633873 0.3711072 0.43859842 0.35355935
0.3690891 -0.9844892 0.32011446 -0.17861661 0.44175723 0.4837394 0.43044847 0.52359223
0.3138795 0.63943166 0.41144562 0.30650455 0.42581388 0.4578095 0.4409641 0.55622745
0.30783468 0.31688392 0.42854515 0.44210386 0.39054292 0.2542442 0.40396813 0.5039867
0.5137835 0.44469425 0.38454568 0.25892815 0.36595887 0.43916428 0.46193796 0.43416166
0.62538254 0.44768673 0.2593607 0.36749586 0.21322802 0.4711308 0.47198537 0.39449713
0.3010332 0.47527432 0.32754838 0.4123335 0.3910063 0.5484395 0.3956331 0.50058013
0.51482064 0.4279331 0.38435644 0.5990839 0.2660538 0.6786607 0.38870215 0.13387942
00000000: 435b 8b3e 94a0 eb3e 5df6 db3e 1343 ed3e
00000010: c090 bb3e c301 be3e f98f e03e bb05 b53e
00000020: 3ff9 bc3e 7c07 7cbf 0be6 a33e 46e7 36be
00000030: 012e e23e b1ac f73e be63 dc3e 240a 063f
00000040: d0b4 a03e cbb1 233f 00a9 d23e 2aee 9c3e
00000050: 4704 da3e 0266 ea3e 0cc6 e13e ec64 0e3f
00000060: 829c 9d3e 9c3e a23e 456a db3e 705b e23e
00000070: 3ef5 c73e 4c2c 823e e9d4 ce3e 4605 013f
00000080: 5187 033f f7ae e33e 2ce3 c43e 3b92 843e
00000090: f65e bb3e 24da e03e 2283 ec3e 704a de3e
000000a0: 1219 203f 3237 e53e edca 843e 6b28 bc3e
000000b0: 7258 5a3e 0e38 f13e 11a8 f13e 87fb c93e
000000c0: 0621 9a3e 2857 f33e 6cb4 a73e 601d d33e
000000d0: fa31 c83e 8866 0c3f 6c90 ca3e 0526 003f
000000e0: 49cb 033f 0c1a db3e 5eca c43e 905d 193f
000000f0: 3438 883e b5bc 2d3f f803 c73e b017 093e
