models/mpg_predictor_model.pth (torch, 4592 bytes, 3 tensors)

fc1.weight f4 [64, 7]
0	0x3dd1aaf7	0.10237687
1	0xbef665e6	-0.48124617
2	0xbf2338c0	-0.6375847
3	0x3e22b2a6	0.15888461
4	0x3f1831c9	0.59450966
5	0x3f32be4f	0.6982164
6	0x3e1204e9	0.14259686
7	0xbef08412	-0.46975762
8	0xbf32af7f	-0.69799036
9	0xbd6af5b3	-0.057363223
10	0xbe918827	-0.28424188
11	0xbf0a56c7	-0.5403866
12	0x3f02f0da	0.5114876
13	0x3e22c28d	0.15894528
14	0xbe868eac	-0.26280725
15	0xbee42775	-0.44561353
16	0xbe873f78	-0.2641561
17	0xbe5da071	-0.21643235
18	0x3d782b60	0.06058824
19	0xbe11d7fd	-0.14242549
20	0x3f52a650	0.8228502
21	0xbe25ac53	-0.16179018
22	0xbf21add9	-0.63155895
23	0xbf1a107a	-0.6018139
24	0xbda2e090	-0.07952988
25	0x3f23cd61	0.6398526
26	0x3e8f0728	0.27935147
27	0x3e5174b3	0.20454673
28	0x3daff32e	0.08591305
29	0x3eb11e82	0.34593588
30	0xbe651428	-0.2237097
31	0x3cf5410a	0.02993824
32	0xbdc4a90d	-0.096025564
33	0x3f517520	0.81819344
34	0xbf429a7e	-0.76016986
35	0xbf177a8c	-0.59171367
36	0xbf013e83	-0.5048601
37	0xbe94e9a6	-0.2908451
38	0xbe50c20b	-0.20386522
39	0xbec4c1ce	-0.3842911
40	0xbeae5c8f	-0.34054992
41	0xbe8d0b7a	-0.27547818
42	0x3e8192c4	0.25307286
43	0x3eb2f50a	0.34952575
44	0xbcac4402	-0.021028522
45	0x3e8a56d1	0.2701936
46	0x3f019da8	0.5063119
47	0x3f5509a1	0.8321782
48	0xbf42fbaa	-0.7616526
49	0xbf2934ba	-0.6609608
50	0xbf117cd0	-0.56831074
51	0xbf0494cd	-0.5178955
52	0xbed367e4	-0.412902
53	0x3eb37490	0.35049868
54	0xbdf77356	-0.120825455
55	0x3e6ed238	0.2332238
56	0xbf417a0d	-0.7557686
57	0x3e521d71	0.20519044
58	0x3f10e06a	0.5659243
59	0x3d832b66	0.06404762
60	0xbef943f2	-0.4868465
61	0x3e31ecc6	0.17375478
62	0x3e8c02c5	0.27345863
63	0xbea6216e	-0.3244738
64	0xbe93937f	-0.28823468
65	0xbdb8a412	-0.09015669
66	0xbef4f690	-0.47844362
67	0xbe2b13db	-0.16706793
68	0xbebbb79c	-0.3666352
69	0x3f0088de	0.5020884
70	0xbf07caa0	-0.53043556
71	0x3dde9848	0.10868889
72	0xbe8bd19b	-0.27308354
73	0xbebdc5e0	-0.3706503
74	0x3cb91a51	0.022595556
75	0x3f276b5f	0.6539821
76	0x3ed9d4b4	0.42545092
77	0x3e68d819	0.22738685
78	0x3eda5b5b	0.42647824
79	0xbf05618e	-0.5210198
80	0xbf10b2b1	-0.5652266
81	0x3d1c2b84	0.038127437
82	0xbea98eab	-0.3311666
83	0xbf2851f7	-0.6575007
84	0x3eaab66b	0.333423
85	0x3e6f2f10	0.23357797
86	0xbe0908f1	-0.13382317
87	0x3e2213c7	0.15827857
88	0x3f71a896	0.94397867
89	0x3f2a0f45	0.6642955
90	0xbf56910a	-0.8381506
91	0xbf2d506f	-0.67700857
92	0xbe95d2cb	-0.29262385
93	0xbf07b2e5	-0.53007346
94	0x3d9e7fa9	0.07739193
95	0xbd84dc55	-0.064873375
96	0xbeda0c90	-0.4258771
97	0xbf39dc77	-0.7260203
98	0xbe92856c	-0.28617418
99	0xbe2d8666	-0.169458
100	0xbea46c24	-0.32113755
101	0xbe0c66ef	-0.13711141
102	0x3e1159d1	0.14194418
103	0x3f30cb87	0.6906056
104	0x3f192f54	0.5983784
105	0x3e403c2d	0.18772955
106	0x3e2037da	0.15646306
107	0x3e04a646	0.12954053
108	0x3b59e10d	0.0033245713
109	0x3ee67eb1	0.45018533
110	0x3ed775f0	0.42082167
111	0xbdf378c1	-0.11888266
112	0xbf2b4f12	-0.66917527
113	0x3d68bceb	0.05682079
114	0xbc6b8d3b	-0.014376934
115	0xbee320e7	-0.4436104
116	0x3f169aea	0.5883013
117	0x3ed47c3c	0.41501033
118	0xbe9ccd94	-0.30625594
119	0x3d8eaccd	0.06966553
120	0xbed91af9	-0.4240339
121	0xbf2224b6	-0.63337266
122	0xbe9d1fdc	-0.3068837
123	0xbf0e9992	-0.5570308
124	0xbf5324bd	-0.82477933
125	0xbf3a18e2	-0.7269422
126	0xbf37387d	-0.7157057
127	0xbe9b994c	-0.30390394
128	0x3d2002f2	0.03906531
129	0xbf21bf4e	-0.6318253
130	0x3ee88425	0.45413318
131	0x3f4cd1c6	0.8000759
132	0x3d821cf2	0.06353177
133	0xbee93ed6	-0.45555753
134	0x3eaca7d2	0.33721787
135	0xbe328694	-0.1743415
136	0x3ebe252e	0.3713774
137	0xbe3d6f00	-0.18499374
138	0x3f418237	0.7558932
139	0xbd846c92	-0.06466021
140	0xbf1fd043	-0.6242716
141	0xbde3c7ed	-0.11122117
142	0xbdb86a99	-0.09004707
143	0xbd9e3aa3	-0.07726028
144	0xbe02d447	-0.1277629
145	0x3ecad0e3	0.39612493
146	0x3f429529	0.7600885
147	0x3e2a6f98	0.16644132
148	0x3ec7dff4	0.3903805
149	0xbebc25b9	-0.3674753
150	0x3ef0c723	0.4702693
151	0xbe430516	-0.19044909
152	0xbe9db222	-0.30799967
153	0xbf47d669	-0.7806154
154	0x3e2f9579	0.17146863
155	0x3f24df01	0.64402777
156	0xbd8e1071	-0.0693673
157	0xbd0c3030	-0.034225643
158	0x3f2a25c8	0.664639
159	0x3e650453	0.22364931
160	0xbf472138	-0.7778506
161	0x3e18dbd5	0.1492761
162	0xbea204bb	-0.31644234
163	0xbecfa4fa	-0.40555555
164	0xbee25714	-0.4420706
165	0xbf82798e	-1.0193346
166	0xbcebdd4a	-0.028792042
167	0xbf7f1b14	-0.9965069
168	0xbf25b4f0	-0.64729214
169	0x3dbdbc98	0.09264487
170	0xbf141a29	-0.5785242
171	0xbf06de1a	-0.5268265
172	0x3e2a0b6d	0.16605921
173	0x3e93884e	0.2881493
174	0x3ef480fd	0.4775466
175	0xbf02f491	-0.5115443
176	0xbf252046	-0.6450237
177	0xbd91e62c	-0.0712398
178	0xbe2b7c96	-0.16746745
179	0xbf8030e2	-1.0014918
180	0xbf931c88	-1.1493082
181	0xbf4fad76	-0.81124055
182	0xbd2e1cbb	-0.04250787
183	0x3f22431b	0.63383645
184	0x3d177132	0.036973186
185	0x3ecd1c71	0.40060762
186	0xbd2cf982	-0.042230137
187	0x3f83f203	1.0308231
188	0xbed76f36	-0.42077035
189	0xbd180f8c	-0.0371242
190	0xbe5b2b29	-0.21403183
191	0xbd2f512a	-0.042802013
192	0xbe076ea4	-0.132258
193	0x3ea22d7e	0.31675333
194	0x3e97de19	0.29661635
195	0xbf2cdb07	-0.6752171
196	0xbe4525e6	-0.19252738
197	0xbd02c037	-0.03192159
198	0x3dbe53af	0.09293305
199	0xbed28208	-0.4111483
200	0xbf45a8fe	-0.77210987
201	0x3dfca388	0.123358786
202	0xbe54a1eb	-0.20764892
203	0xbe648d8a	-0.22319618
204	0xbf27675a	-0.65392077
205	0x3d41819a	0.04724274
206	0xbf344160	-0.70412254
207	0xbdb02877	-0.08601468
208	0x3e24bbc5	0.16087253
209	0x3f2829d0	0.656888
210	0x3e152eee	0.14568684
211	0x3f106c65	0.56415397
212	0xbce9dee9	-0.028548675
213	0x3ee908a3	0.45514402
214	0xbbfcd298	-0.0077155344
215	0x3db3350a	0.08750351
216	0xbf4b1eb8	-0.7934375
217	0x3e75fc93	0.2402213
218	0x3f0ab436	0.5418123
219	0x3c7504eb	0.014954786
220	0x3d7fd749	0.06246117
221	0xbe48dc21	-0.19615223
222	0x3f8765e9	1.0577976
223	0xbf0884d2	-0.5332767
224	0xbf020031	-0.5078154
225	0xbef6bd81	-0.48191455
226	0xbcc3016c	-0.023804389
227	0xbf06c598	-0.52645254
228	0xbe9b50ef	-0.30335185
229	0x3f148a66	0.5802368
230	0x3e0181f6	0.12647232
231	0x3f0c3083	0.54761523
232	0x3f3938cd	0.72352296
233	0xbf1ad18f	-0.6047601
234	0x3ec1ee03	0.378769
235	0xbd18cb3c	-0.037303194
236	0xbdc0c9a0	-0.09413457
237	0xbf4be972	-0.79653084
238	0x3e4996f1	0.19686486
239	0x3ecd6b17	0.40120766
240	0xbf017dfc	-0.5058286
241	0xbdde5bf5	-0.10857383
242	0x3f0a8f94	0.5412533
243	0xbdf876ba	-0.1213202
244	0xbedfca1d	-0.43708888
245	0x3f016813	0.5054943
246	0x3efad662	0.48991686
247	0x3e69dcb9	0.22838105
248	0xbe0c86f2	-0.13723353
249	0xbe63533a	-0.22199717
250	0x3e04d879	0.12973203
251	0xbf6097a5	-0.8773139
252	0xbf17d227	-0.5930504
253	0xbe8b2cab	-0.27182516
254	0xbe22ae56	-0.15886816
255	0xbeddfa8b	-0.43355212

fc1.bias f4 [64]
0	0x3f16db03	0.58927935
1	0x3ebd7c1f	0.3700876
2	0x3dd7c3a7	0.105353646
3	0x3e2e72cf	0.17035984
4	0x3f0e7c62	0.55658543
5	0x3f46b75d	0.7762354
6	0x3f436e2b	0.7633998
7	0x3ee528da	0.4475773
8	0x3cb131c4	0.021630175
9	0x3ef9658b	0.48710284
10	0x3f27b804	0.6551516
11	0x3e13d646	0.14437208
12	0x3eecf11f	0.4627771
13	0x3f698458	0.91217566
14	0x3ea3dc4a	0.32004005
15	0xbe824191	-0.25440648
16	0x3ef32cd3	0.47495136
17	0x3f09bec8	0.53806734
18	0x3f067d91	0.5253535
19	0x3ee93e34	0.4555527
20	0x3f2bff2c	0.67186236
21	0x3f1281fb	0.57229584
22	0x3f07cea6	0.53049695
23	0x3eabbc51	0.33542112
24	0x3ea77ad6	0.32710904
25	0x3f15fcbf	0.58588785
26	0x3f6796cb	0.90464467
27	0x3f48d17a	0.78444636
28	0x3f341a38	0.70352507
29	0x3e2fb234	0.17157823
30	0x3f41ab0e	0.75651634
31	0x3f0604cf	0.5235109
32	0x3e1a74ad	0.15083571
33	0x3f767612	0.9627391
34	0x3eca9370	0.3956561
35	0x3eb97123	0.3621913
36	0x3f51f928	0.8202081
37	0xbf1988c9	-0.5997434
38	0x3ee5b3ae	0.44863647
39	0x3f0aedcc	0.542691
40	0xbe368d99	-0.17827453
41	0x3ec13166	0.37733
42	0x3eb001b5	0.34376302
43	0x3f051d09	0.5199743
44	0x3ed0f0e2	0.4080878
45	0x3f249c7c	0.64301276
46	0xbeb9d384	-0.36294186
47	0x3f34db7d	0.7064741
48	0x3ee665cf	0.4499955
49	0x3f5c1fe2	0.8598615
50	0x3e0a9e5b	0.1353697
51	0x3eeb67aa	0.45977527
52	0x3ee0f061	0.43933395
53	0x3f1b3a01	0.6063538
54	0x3f555da9	0.8334604
55	0x3f5186e5	0.8184646
56	0x3eedb2f8	0.46425605
57	0x3f137b3a	0.57609904
58	0x3f12c6cf	0.5733461
59	0x3e6512a5	0.22370394
60	0x3ee9690b	0.45587954
61	0x3f59fcac	0.8515117
62	0x3f5b74a3	0.8572485
63	0x3ecfe44d	0.40603867

fc2.weight f4 [1, 64]
0	0x3ec241e5	0.379409
1	0x3f01d852	0.50720704
2	0x3eb2f431	0.34951928
3	0x3ed625e5	0.41825786
4	0x3f01425e	0.50491893
5	0x3ee1efc6	0.44128245
6	0x3ee5448e	0.44778866
7	0x3eaeeece	0.3416657
8	0x3e490328	0.1963011
9	0x3ecfa099	0.40552214
10	0x3ee2dc6a	0.44308788
11	0x3e815734	0.25261843
12	0x3f098da0	0.5373173
13	0x3edc33e1	0.4300833
14	0x3ef3deaf	0.47630832
15	0x3ddc2ede	0.10751127
16	0x3ee51e5f	0.44749734
17	0x3eeabec2	0.45848662
18	0x3ea52877	0.32257435
19	0x3f093695	0.5359891
20	0x3ec8b889	0.3920329
21	0x3ee9547b	0.45572266
22	0x3f186425	0.5952781
23	0x3eee9efd	0.46605673
24	0x3ecf1f92	0.40453774
25	0x3f08e619	0.534761
26	0x3ed59b0e	0.4171986
27	0x3e9aba98	0.30220485
28	0x3e955248	0.29164338
29	0x3ecf2330	0.40456533
30	0x3ed5b2cb	0.4173797
31	0x3ef46959	0.47736624
32	0x3efaf56a	0.4901536
33	0x3eae0ebd	0.3399562
34	0x3e8f10d2	0.2794252
35	0x3ec7b7c3	0.39007387
36	0x3ed2a8d2	0.41144425
37	0xbf3b72f8	-0.73222303
38	0x3ee196a4	0.44060242
39	0x3ed49c10	0.41525316
40	0x3e958135	0.2920014
41	0x3e8b52ea	0.27211696
42	0x3ed2c298	0.41164088
43	0x3eab5ff4	0.33471644
44	0x3e854a2e	0.26033157
45	0x3f2451b7	0.64187187
46	0xbb49a8b7	-0.0030770728
47	0x3ef34dc5	0.4752027
48	0x3f04f80e	0.51941
49	0x3ec98a8e	0.3936352
50	0x3eb33138	0.34998488
51	0x3edc6124	0.43042862
52	0x3ed94aec	0.42439973
53	0x3ed2375c	0.4105786
54	0x3eeff82c	0.46869028
55	0x3ef1eb63	0.47249898
56	0x3f05dd3c	0.522907
57	0x3ecb3bf1	0.3969417
58	0x3ef4c4a8	0.47806287
59	0x3ec18956	0.37800092
60	0x3f0c0f6e	0.54711044
61	0x3e876dd8	0.26450992
62	0x3ed1f105	0.41004196
63	0x3ed171fa	0.4090727
