models/mpg_predictor_model.pth (torch, 4592 bytes, 3 tensors)

fc1.weight f4 [64, 7]
00000000: 506b 22bf b99c 00bf c995 a7bd 10e7 0bbe
00000010: 0a0b 78be 769f 3b3e 8b95 e43e cc5c 06be
00000020: c9c2 73be 689b d2bd 494c 43bc fa91 013e
00000030: 7310 8e3e 289c 34bf f6e6 86bd cf53 81be
00000040: 4fc9 a93d 9e1c ecbe e626 3fbf 2c06 e0bd
00000050: 9247 bebd 5e4c 66be 6025 d7be 0e17 cbbe
00000060: 7c02 1fbe 573d 9dbe 6646 ca3e 64f4 113f
00000070: 3caf 2abf 2171 06bf 8436 94be da7c 90bc
00000080: 52bb bc3e 21f8 c03e 4af2 e43e 7187 ec3e
00000090: f1ab f23e 6edc 033e b2c3 6c3d bf5c 53be
000000a0: c3f5 813f de4f efbe f82d 7abe f4e3 1e3e
000000b0: 39b6 95be 54cd cebe 5a1e 58bf 947b 0abe
000000c0: d96e 03bf f680 a4be 5842 a0be 121b b7be
000000d0: 502a 31be c6d7 953e 856c 083e 8bc7 d93e
000000e0: 7890 e73e b6be 1c3f bb28 423b a3f1 483e
000000f0: 9659 c2bd 9b5a 233e 3cef 2bbf ee7b 07bf
00000100: ff17 cfbe 28c1 1dbf 21aa e7be 664e 00be
00000110: fc48 163f cf8b 793e e7ae 873d 20be 923e
00000120: a5e8 1dbe 553d 053e c8bf cebd 149a 853f
00000130: 649c edbd 19d8 103f 2413 a93e 295c 6abe
00000140: 7574 db3e c273 923e 2c63 a9bd fb56 4dbf
00000150: 6db0 fbbe f0a0 10bf 6221 a8be a072 0bbf
00000160: 8ab5 a43e e406 1f3f 81ee 983e fb1d 05bf
00000170: 9417 e33d a2e9 aebe 8ed9 bdbe ffdf b1be
00000180: f57f 163f 62f9 b9be 7334 cdbe 2a67 c6be
00000190: c7e6 69be 8f22 6ebc d92e 0c3f d9c5 ebbe
000001a0: 5eec 663e 7b08 24be e980 a2be f804 07bf
000001b0: fed4 b2be 26cb dcbd 8289 2e3e 2354 28bd
000001c0: 89b0 f3bd 56d3 5bbe d1b7 12bf b646 273e
000001d0: 5698 1cbf b92d f43d f35a 903d bfd7 68be
000001e0: a129 babe 2a32 6a3d 57d2 0fbf 1b58 3fbf
000001f0: 4464 ae3b 5d63 a33d ff1e 263f 74c3 493f
00000200: ca35 83bf 7af1 49be 94fb 9a3e bf71 f53e
00000210: fd1c 6bbf f6ba b33e 1533 9d3d 7dc7 3bbd
00000220: 52e7 9b3e ff23 5cbd d6bf 1abd 57e0 22bf
00000230: 6fff 03bf 0aa5 9bbe 094c 2bbf 0655 cbbc
00000240: b94c dabd a644 48be 4286 5abf 6a22 e5be
00000250: 3aa3 01be fa09 c1be c6c3 d3bc 8ead 353d
00000260: cf60 67bd 41e9 753e 48b3 853e c516 ee3e
00000270: 52d2 94be dc18 09be e0b9 4d3e 8cbc bb3e
00000280: a13f acbd 23a9 b43e 660a 283f 41cd 55bf
00000290: 4b59 8b3e 7914 0b3f 8a6b 463f 128d 29bf
000002a0: bcf0 d8be 234c 2c3f 3346 13bf 5765 423e
000002b0: aff8 9dbe c8e8 a63e d9a2 e4be 86f6 92be
000002c0: 9af3 bd3e 0a96 08bf 4fd3 d53d 4cc5 d2be
000002d0: a877 43bf 52f5 2fbf 46f0 25bc 21f0 113f
000002e0: e75f bbbb 7a85 4c3e 6b54 7b3e 9ad7 443f
000002f0: 81bc b13f 581f dabe b6bb 94be 9b9e e6bd
00000300: eaf9 f0be 592a f9be 626c 233f 81a7 463f
00000310: 87d5 693d fbbb 303e 9972 bdbe aec3 5ebe
00000320: 8260 923e b7ac 0cbf fd8c febe caf4 473d
00000330: 52bf fdbe 9565 bfbe 4c20 0dbf fd62 c6be
00000340: 0ad5 7c3a 22ca b63c f6d1 83be b1b2 a3be
00000350: 0e9a 8abe 0c7d f9bd d201 3ebf 24d5 0abe
00000360: 7f53 63bf fbfd 04bf 9f15 efbe e44a 9cbe
00000370: b9c1 1cbf c3ca 0cbf 1615 44be 7a21 6cbe
00000380: 4abb de3e 3b05 3ebe ac40 61be 67f9 343e
00000390: 45f3 8f3e 55f0 c73e 5de2 1d3e 16f5 df3e
000003a0: 9f7a 2a3f 1bd1 603e 4efd 8c3e d2e9 babe
000003b0: bb7c 3e3d 4c6d 89be 63c7 e63e 28e4 d03e
000003c0: 7e54 e8bd 1252 363d 6f6f 87be f2ad 463f
000003d0: 4bff 56bf 9ed7 603e 5c07 883e 048d 63bf
000003e0: 2136 9fbd 1a53 7b3e c453 1ebf 6ad1 1abf
000003f0: 7cf5 f03c 84a1 363d 8356 e3be 17c5 d7be
-0.63444996 -0.5023914 -0.08182866 -0.13662362 -0.24222961 0.18322548 0.44645342 -0.13121337
-0.23804773 -0.10283548 -0.011920043 0.12653342 0.27746925 -0.70550776 -0.06587021 -0.25259253
0.0829035 -0.46115583 -0.7466873 -0.10938677 -0.09290995 -0.2249007 -0.42020702 -0.39666027
-0.15528291 -0.3071086 0.39506835 0.57013535 -0.66673636 -0.5251637 -0.28947842 -0.017637659
0.36861664 0.37689307 0.44716102 0.46197084 0.47396806 0.12877056 0.057803817 -0.20640849
1.0153126 -0.4674062 -0.24431598 0.15516645 -0.29240587 -0.40391028 -0.8442131 -0.13523704
-0.51341015 -0.3212964 -0.31300616 -0.3576284 -0.17301297 0.29266185 0.13322647 0.42535052
0.45227408 0.612285 0.0029626328 0.19623427 -0.094897434 0.15952532 -0.6716192 -0.52923477
-0.40447995 -0.6162286 -0.45246986 -0.12529907 0.58705115 0.24369739 0.06625157 0.2866068
-0.15420778 0.13011678 -0.10095173 1.0437646 -0.11602095 0.5657974 0.33022416 -0.22886719
0.42862287 0.2860394 -0.08270869 -0.80210847 -0.4915804 -0.5649557 -0.3283797 -0.5447178
0.32169753 0.6211989 0.29869464 -0.5199887 0.110884815 -0.34162623 -0.37080044 -0.34741208
0.58788997 -0.36323076 -0.40079078 -0.38750583 -0.22841941 -0.014534607 0.54758984 -0.46049383
0.22551104 -0.1601886 -0.31738976 -0.52741957 -0.34928125 -0.10780935 0.17044643 -0.041095864
-0.11898906 -0.21467337 -0.5731173 0.16335568 -0.61169946 0.119227834 0.07048597 -0.2273855
-0.36359885 0.057176746 -0.5618033 -0.74743813 0.005322011 0.079779364 0.64891046 0.7881386
-1.025079 -0.19721022 0.30270064 0.47938344 -0.9184111 0.35103577 0.07675759 -0.045844544
0.3044992 -0.053745266 -0.037780605 -0.63623565 -0.51561636 -0.30399352 -0.66912895 -0.024820816
-0.10659165 -0.19557437 -0.8536111 -0.44752818 -0.12659922 -0.37702924 -0.025850188 0.044354968
-0.05648881 0.2401476 0.26113343 0.46501747 -0.29066712 -0.1338839 0.20090437 0.36667287
-0.08410574 0.3528529 0.65640867 -0.8351632 0.27216563 0.54328114 0.7750784 -0.6623088
-0.42371166 0.67303675 -0.5752899 0.1898397 -0.30853793 0.32599473 -0.44655493 -0.28703707
0.37099916 -0.5335394 0.104406945 -0.4116615 -0.76354456 -0.68733704 -0.010128086 0.5700703
-0.0057182196 0.19972792 0.24543922 0.7689148 1.3885652 -0.42602038 -0.29049462 -0.1126072
-0.4706567 -0.4866512 0.63837254 0.7759934 0.0570884 0.17259209 -0.37001494 -0.21754333
0.28589255 -0.5495104 -0.4971694 0.048817433 -0.49560028 -0.37382188 -0.55127406 -0.38747397
0.00096447824 0.022313181 -0.25746125 -0.31972268 -0.2707066 -0.12182054 -0.7422153 -0.13557869
-0.8879928 -0.51950043 -0.46696183 -0.30525887 -0.612331 -0.5499689 -0.19148669 -0.23059645
0.43502265 -0.18556683 -0.21997327 0.17673264 0.28115287 0.39050546 0.15418382 0.43741673
0.66593355 0.21954767 0.27537006 -0.36506516 0.04650567 -0.268412 0.45073995 0.4079907
-0.113442406 0.044511862 -0.26452205 0.7760917 -0.83983296 0.21957251 0.26568115 -0.8888705
-0.07773996 0.2454342 -0.61846566 -0.6047579 0.029413931 0.044587627 -0.4440194 -0.42142555

fc1.bias f4 [64]
00000000: 6a71 b93e 43cb 533f 2280 f33e 7521 103f
00000010: 2b9a 913e a473 303f cd83 263f d75c d23e
00000020: 5668 013f 47b7 de3e 1c22 373f 00eb db3e
00000030: 7c99 613e 2c64 403f 13cd 353f 91bc 5f3f
00000040: c996 5c3f e02f 6d3f 3ada 593f 4959 a93e
00000050: 3a3f ec3e b6b7 4d3f 5018 95be bb3d fc3e
00000060: 7641 e93e 8172 563f 0b2a af3e 11fd 833e
00000070: c2e5 483e 3405 333f 2dcf ea3e 421e 413f
00000080: e922 04bd 51ae fb3e d5aa 703f 6857 293f
00000090: 92e6 3f3f d60d 383f 4aef 533f e5ae 093f
000000a0: 3de8 443f f364 3e3f db35 5b3f 2085 82be
000000b0: 5be2 553f ca94 603e 84a7 183f 7595 053f
000000c0: 6498 ae3e 2812 e13e 8f82 fc3d f413 aa3e
000000d0: 5587 023f 3d68 183f fe11 513f d7cf 0a3f
000000e0: 9ef8 6c3f 2083 333f d227 d83e afce ea3e
000000f0: cf6e 0e3f 45e7 673f 8898 183f 30e8 613f
0.3621934 0.8273203 0.47558695 0.5630105 0.28437933 0.68926454 0.6504486 0.41086456
0.5054983 0.43499205 0.7153642 0.42952728 0.22031206 0.7515285 0.71016043 0.87397105
0.8616758 0.92651176 0.8509861 0.33075932 0.46141988 0.80358446 -0.2912011 0.49265847
0.45557755 0.8376847 0.34211764 0.25779012 0.19618896 0.69929814 0.45861188 0.75436795
-0.032259855 0.4915643 0.9401067 0.66148996 0.749612 0.7189611 0.82787 0.5378249
0.7691687 0.74372786 0.8562905 -0.2549219 0.83548516 0.21931759 0.5963061 0.5218118
0.3410064 0.43959165 0.123295896 0.33218348 0.5098775 0.59534055 0.8166808 0.5422339
0.9256686 0.70121956 0.4221788 0.45860812 0.5563783 0.90587264 0.59607744 0.88244915

fc2.weight f4 [1, 64]
00000000: e486 ea3e 8fb7 a73e 76bc 983e 3327 db3e
00000010: 9144 b83e e59a ee3e 9b97 933e 890a cd3e
00000020: 78b7 d13e f659 aa3e 9329 cd3e 8030 073f
00000030: 08b5 9b3e 8e4a ad3e 502c b43e 606f c33e
00000040: 1ebf ec3e 52b1 c93e f5f3 de3e b769 273e
00000050: ae65 003f 9f2e c23e 94e4 5c3e 245a 0d3f
00000060: 86ef 8c3e b956 dc3e b6a0 1a3f 9260 d33e
00000070: 09e8 4a3e d1be d83e 1cbd 033f c8da a33e
00000080: 7b32 bd3d 0215 b83e b5aa d33e 0f03 c13e
00000090: 5fda d13e 77a8 cd3e 0c11 e83e 1c6a 973e
000000a0: 79b9 ed3e 0677 d63e 79d2 bf3e 5273 d63b
000000b0: d63c cf3e fcb8 993e 5e4e c23e a243 f63e
000000c0: e395 b23e 3fbf ba3e 8130 b53e 57d4 4f3e
000000d0: b3c7 b73e 6ad6 cb3e f562 f73e c796 c13e
000000e0: 0c88 d03e 4371 c53e 8698 a53e 5e4e be3e
000000f0: 2716 1a3f c801 a13e 78d3 d13e 6043 903e
0.45806038 0.32757232 0.29831284 0.42803344 0.35989812 0.4660255 0.28826603 0.400471
0.40960288 0.3327176 0.4007078 0.5280838 0.30411553 0.33845943 0.35190058 0.3817091
0.4623956 0.39393097 0.435455 0.16348921 0.5015515 0.37926194 0.2157157 0.5521567
0.27526492 0.43034914 0.60401475 0.41284615 0.19815077 0.4233308 0.51460433 0.32002854
0.09238144 0.35953528 0.41341177 0.37697646 0.40986916 0.4016759 0.45325506 0.29573143
0.46430567 0.41887683 0.37465265 0.006544509 0.40476102 0.30023944 0.37950414 0.48098475
0.3487998 0.36474034 0.35388568 0.20295845 0.35894546 0.39812022 0.48317686 0.37810346
0.40728796 0.38562974 0.3234293 0.37169164 0.6019005 0.3144667 0.4098165 0.28176403
